model_best.pkl (torch, 72905 bytes, 10 tensors)

net.0.weight f4 [20, 3, 3, 3]
00000000: 6205 113e 7bae 86bd 20a2 cfbd a601 e5bd
00000010: b1c1 afbd 1f12 ffbd 5286 383e 59b5 96bc
00000020: fe52 f0bc 3dfd 913d b489 a9bd 94a0 0d3e
00000030: c39a 323d 1cd9 2f3e e06f 453e b7c6 e6bc
00000040: cd5e 28be 3e4e 133e 4a9e 5c3c 7432 223e
00000050: 825d 3cba 711e ff3d 7166 413d 960f 383e
00000060: 3100 763d 2880 f2bd c255 5e3d 9d1a b33d
00000070: 4aad 1abe 2cc5 d2bd ff65 6a3c f53e 0b3e
00000080: b28f b93d af2f 353d a596 5bbd f0af 063e
00000090: 3c4f fe3d dad9 283e feda 523e 1384 023e
000000a0: 3f2d 13be 117b 343e 38f4 1e3e 9609 9f3c
000000b0: 85f1 a53b a7bf a23d 0816 c4bd f181 e539
000000c0: b3de d93d 23f0 c2bd e3e0 dc3d 9616 d6bc
000000d0: a793 293e 6113 113d 1797 623e 5fc2 67bd
000000e0: c634 543e 9903 2fba 7d0e c1bd cf58 443e
000000f0: ec63 e73d 4dce 1a3e f0be ea3d 12d8 193e
00000100: 290d 553d a46a 07bd 0fba 5b3e 6d68 d8bd
00000110: d3e9 533e f556 223d 7dc1 443e 620b 453e
00000120: a30f 01be dd33 d53d d840 31be 0824 3f3e
00000130: 0700 25be 6799 123e a756 f7bd 234d c9bc
00000140: f5e4 09be c6b8 153e 536a 3f3e 8dc0 cd3d
00000150: b36c 903b 3b95 873d b882 df3d 484c 933d
00000160: 6f05 1c3e d7d2 9e3c 7482 d9bd 23ef 0d3e
00000170: 8e28 95bd 0e22 16be 48be 373e a595 4b3e
00000180: 115b c5bd 4243 383e e0b0 9e3d 211c 49bd
00000190: 08c8 e6bd e75d 30be 5837 473d 8d10 f3bd
000001a0: b70d 83bd 8ee6 123e 42b7 cdbb c8ce 43be
000001b0: 4a93 a43d 62d1 f6bd 83e0 5a3e b380 a1bd
000001c0: 18e7 193e a545 4f3e b74c 013e 423d 04be
000001d0: d5e9 433e efa1 903d 97f2 913d eafe 463e
000001e0: 80e2 603e 63a1 153d 9603 37bd dd21 5d3e
000001f0: 076a fabc d205 1d3e 14d7 fabc 1461 2cbe
00000200: 8546 563d cf2d 113e 9054 5abc a11b e7bd
00000210: 6e91 c03c 3136 39be ebd7 1d3d 51c5 67bd
00000220: b198 b3bd fea7 c03d 708a 593e cfb0 423d
00000230: c4d1 243e 80d9 943d 50dc 653d d210 073e
00000240: 2665 9cbd 80e8 feba e30c b6bd 2795 173e
00000250: 378f cfbc a230 16be 9c2f a1bc 3c60 973d
00000260: 3a9f 073e cdab 40be dd33 81bc 724f 003e
00000270: c7b9 333e ad4c 403e c620 30bd c34f 40be
00000280: f126 7dbd f916 0e3e bb11 35be 4196 c3bd
00000290: a18d a2bd a1a3 c43d 0d12 2dbe 95e8 24bc
000002a0: edae 0a3d d2fd b5bb bdac 8f3d cbfd 51bd
000002b0: 7c36 e5bb ef46 0d3c 8bf9 fd3b ff4d 253b
000002c0: f14b 0fbd 3a88 0abe fcc5 5dbd 5c84 d33d
000002d0: 33e7 dc3a a35b 1cbe 6b5a 83bd c709 ed3d
000002e0: 987d 04be 3d3d adbd f4f0 133d e61f 99bc
000002f0: 33eb 143e 0978 643e 6924 d1bd 7022 5b3e
00000300: efc3 643e fc39 a0bd d908 cd3c 3854 b33d
00000310: ce7f ab3d 5b27 933c 25b9 f03d d04a 63bd
00000320: 0471 123e 785e 84bb c471 3c3e c353 fd3d
00000330: 4261 2ebe 574e 0fbe 8771 43bd b501 e23d
00000340: c567 333e d431 3e3e 913c 51bd 9490 15be
00000350: 1123 80bd f375 03be 8b3d 11be 5325 ad3d
00000360: 0e39 5a3e 3d09 573e f41f 4b3e 826e 973d
00000370: 6d12 d7bd 0dd5 e03d ed80 9f3c 87a3 193e
00000380: 6b57 cabc 58a7 863d 11d0 183d c36f f6bd
00000390: b890 283e 0e97 bd3d c589 71bd 17ba 1bbe
000003a0: 84d3 3d3e dac1 143e 3576 033e a9cc da3d
000003b0: ad70 b5bd 741d 05be 35dc c63d 24bc 3d3d
000003c0: ca91 ccbd 85ae 7f3d c733 153e 4f52 023e
000003d0: 1c1d 02be 26cd 743d 0e92 9a3d 0a8e 383e
000003e0: cc31 22be 400c 513e 1957 8fbd 3ec2 963d
000003f0: afaf 953d 2d9d c03d 0ec6 0dbe 635d 4c3e
0.1416221 -0.06576248 -0.10138345 -0.11181955 -0.085818656 -0.12454628 0.18019989 -0.01839702
-0.029336449 0.071283795 -0.08278218 0.13830787 0.043604624 0.17172664 0.19280958 -0.028170926
-0.16442414 0.14385316 0.013465473 0.15839559 -0.00071855646 0.12456978 0.047216836 0.17974696
0.060058776 -0.1184085 0.054281004 0.087453105 -0.15105167 -0.10291514 0.014306544 0.13598235
0.09060611 0.044234928 -0.053610463 0.13153052 0.124174565 0.16489354 0.20591351 0.12745695
-0.14372729 0.17625071 0.1552285 0.01941375 0.0050641918 0.07946711 -0.095745146 0.00043775098
0.1063818 -0.09518459 0.10785081 -0.026133817 0.16560231 0.03541887 0.22127949 -0.05658185
0.20723256 -0.00066762563 -0.094265915 0.19174503 0.112983555 0.1511776 0.114622 0.1502383
0.052014504 -0.033060685 0.21457694 -0.10566793 0.20694666 0.03963371 0.19214435 0.19242623
-0.12603621 0.10410283 -0.17309892 0.18666089 -0.16113292 0.14316331 -0.120770745 -0.024572914
-0.13466246 0.14621267 0.18692903 0.10046492 0.004407489 0.0662026 0.109136045 0.07192284
0.15236448 0.019387646 -0.10620585 0.13860755 -0.07283126 -0.14661428 0.1794368 0.19881304
-0.0963651 0.17994407 0.0774858 -0.04909909 -0.11268622 -0.17223321 0.048636764 -0.11868391
-0.063991 0.14345762 -0.0062779495 -0.1912185 0.08035906 -0.12051655 0.21374707 -0.078858756
0.15029562 0.20241411 0.1262692 -0.12913993 0.19132169 0.070621364 0.071263485 0.1943318
0.21961403 0.036530863 -0.044681154 0.21594949 -0.030568136 0.15334252 -0.030620135 -0.16833907
0.052313346 0.14177631 -0.013325825 -0.11284567 0.023506846 -0.18087079 0.038535994 -0.05658466
-0.08769358 0.09407042 0.21244216 0.0475319 0.16095644 0.07268047 0.05611831 0.1319001
-0.0763648 -0.0019447953 -0.08889177 0.14802991 -0.025336845 -0.1466699 -0.019676022 0.07391402
0.13244334 -0.18815537 -0.0157718 0.12530306 0.17551337 0.1877925 -0.043000005 -0.18780427
-0.061804716 0.13875951 -0.17682545 -0.09550143 -0.0793717 0.09601522 -0.16901417 -0.0100652175
0.03385823 -0.0055539394 0.07015369 -0.051267426 -0.0069950204 0.008622869 0.007750695 0.0025223491
-0.034984533 -0.13528529 -0.05414389 0.1032798 0.0016853571 -0.15269332 -0.0641373 0.115741305
-0.12938535 -0.08458946 0.036118463 -0.018691968 0.14542846 0.22311415 -0.10212023 0.21399856
0.22340368 -0.0782356 0.025028633 0.08756298 0.08373986 0.017963102 0.117540635 -0.05549127
0.14300925 -0.004039582 0.18402773 0.12369492 -0.17029288 -0.13994728 -0.04771569 0.11035482
0.17520054 0.18573695 -0.05108315 -0.14605933 -0.062566884 -0.12837963 -0.14183633 0.08454385
0.21310827 0.20999618 0.19836408 0.073941246 -0.10501561 0.10978136 0.019470656 0.15003787
-0.024699887 0.06574887 0.037307803 -0.120330356 0.16461456 0.09257327 -0.058969278 -0.15207706
0.18537718 0.14527074 0.12838061 0.10683567 -0.08859382 -0.12999517 0.0970997 0.046322003
-0.099887446 0.062422294 0.14570533 0.1272671 -0.12706417 0.059765957 0.07547389 0.18022934
-0.15839309 0.20414829 -0.069990344 0.073612675 0.073088996 0.09404979 -0.13845083 0.19957499

net.0.bias f4 [20]
00000000: ee03 363e 3feb da3c cf17 253e 41b2 973c
00000010: eb10 a93d fd70 b83d e5c9 39bd 7842 813d
00000020: 18bf 1b3d d425 18be f8bb 57bd 5e0a d4bd
00000030: c892 b63c c1a5 07be c250 593e ff35 e83d
00000040: 85dd eabd b1d4 b03d b8fe a33d 84b6 0abe
0.17774937 0.026723502 0.16122364 0.018517615 0.0825518 0.09005926 -0.045358557 0.06311506
0.038024038 -0.1485818 -0.052669495 -0.1035354 0.022286788 -0.13246824 0.21222213 0.11338424
-0.11468033 0.08634318 0.08007568 -0.13546187

net.3.weight f4 [40, 20, 3, 3]
00000000: edf5 02bd 4a0a 62bd 884c 933c 6a82 b63d
00000010: 0d0d 823d 100e 703d 919d 1f3c d30f 71bc
00000020: 8c28 7e3d 9065 b1bb 5962 213c 055a 1fbd
00000030: 5c97 0b3d 3fcc 283d 1361 a23d 863c e2bc
00000040: f32e bd3d 0df8 c03d 50c7 ce3d 8d61 873d
00000050: 330d c73d 3b85 2b3c 4494 a23c eab9 1abd
00000060: 234f 993c edc0 ba3d 6991 15bd 35c1 b93d
00000070: aac4 2abc bd57 80bc 3247 503d 9f66 9c3d
00000080: c1da 7f3d 2e22 10bd 8ec4 48bc d35b bb3d
00000090: 6e39 c53d d6d8 87bb 750e bd38 f424 8a3d
000000a0: 0236 2b3d 939e 9ebc da57 393d acc9 2bbc
000000b0: 321a 0ebd 08a6 0cbc 60d1 09bd 0462 a93d
000000c0: 0947 2d3c 4efe 00bd 9534 603c d9f0 7b3d
000000d0: 6f48 37bd 5cd1 24bc 4b8c bcbb e283 96bc
000000e0: 06cd 22bd 4a4a 79bd c2e0 743d d67d a5bd
000000f0: 18e9 80bd d65d f43b c934 d33c 5188 9e3c
00000100: ba8d 843d 8c60 11bd 2679 7e3d c26d 9a3d
00000110: 5923 1fbd d513 b13d 7548 43bc 474b 8c3d
00000120: 7195 2fbd e180 1cbd 3582 b33d a9b1 843d
00000130: 120c ebbc cfe7 633b 0ce5 95bc b1e1 01bd
00000140: 43bf 4a3d 2fc0 5e3d 77a2 f5bc cc18 3c3c
00000150: ff66 af3d 0849 943d 8414 a63c eba0 b13d
00000160: 6d43 383d 9f6e c43d aac5 513d 23b5 413d
00000170: be4c b53b 9dd4 28bd e8cb 3fbd 13b1 0dbd
00000180: 96c3 ac3c 69c1 78bd 50cf 0ebb c8aa 9f3d
00000190: 4058 1a3d e9b0 77bc fe4e cf3d 9c40 963d
000001a0: 2b77 c03d 7aed c73d 93b8 51bc 83e4 a63b
000001b0: 2efe fabc ce7a 10bd ffda 3f3d 8096 663d
000001c0: 947f 163c deeb 703c ca59 83bc 4bff 9c3c
000001d0: b7a6 91bc 9839 453c 2e93 973d a62d 0cbd
000001e0: 3192 963d 00e8 1eba 225c 34bc c6fa 26bd
000001f0: ff21 72bd 5e19 323d 5dd5 2dbd e58d 05bd
00000200: f6f1 a43b 5bb5 2abd d791 3b3b bf80 723d
00000210: 0647 5a3d 01f0 0c3b f95b 12bd d642 9abd
00000220: 61be 823d 84c7 fe3c 2e60 0ebc ec53 153d
00000230: da2d 443c 6937 41bd b8fe 03bd ff9a 353d
00000240: 191b fc3c 39a0 a33d 6ea8 1c3d bf1b 8abc
00000250: 4ff2 723d 1778 b83d 62e3 ab3d b100 0abd
00000260: 33a5 5d3d 5459 803b 1913 ca3d 1538 b8bc
00000270: 9ea7 243d 55cf 2f3d cd13 8f3d 9206 5b3c
00000280: 330f c73d 8844 cc3c 8bb1 febc 16bc be3d
00000290: 9e86 063d 59b8 0c3d b48a 1dbd 352c d43c
000002a0: 4e41 8a3d f26f c83d a84a aa3c 2e19 2e3d
000002b0: 5d68 aabb 050d 21bd 8cc1 4a3c f903 3dbc
000002c0: f43f ef3b ca16 51bd 7f6b 573d bd96 e6bc
000002d0: caa3 f3bc fbe2 0ebd 7798 acbc 0780 6fbb
000002e0: deb8 f9bc d2c4 543d e0ff 5b3d 263d bd3b
000002f0: fd07 fabc 1930 bf3d 8404 483d b51c 103d
00000300: fc7e b1bb 0d9c 873c 3779 263d 4d38 51bd
00000310: 21ae 87bc 7eed 30bc 8d72 233d 9e6c 9f3d
00000320: 3710 eabc 7e3a b3bc a980 213d ee4d 273c
00000330: 9b80 ecbc 127d c63d 0517 b23d 829f 7d3d
00000340: a25b 37bd 43a2 cbbc 6f33 5f3d cddc a53d
00000350: 34b6 a43d a587 153d 0557 083c ca18 08bd
00000360: e673 503d 38c3 9fbc 7cb5 913d 89c1 76bb
00000370: ab82 05bd 4e8d 27bc b3ba 8b3d f1a1 d53b
00000380: 6bae 1dbd b370 2d3d 3a76 fc3b 0a66 d5bc
00000390: 61ed f53c b0da 8a3d 99ae a6bc 427f 7a3d
000003a0: 62a9 683c bea8 b03d fa32 823c c802 9fbc
000003b0: a842 9abc acdd 0a3c 6f00 a0bd 02e2 54bd
000003c0: 9c24 4fbd 72c7 adbd c3b0 203d cadb 8b3d
000003d0: 24a4 0ebc eb6c 203c ecfd b83c 8fa6 703d
000003e0: b712 bebc 7056 583d e0d3 bebc 622b b8bc
000003f0: 106e a73d 616f c23d 9ec9 4c3d 6efc 4f3d
-0.031972814 -0.055185594 0.017980829 0.08911593 0.063501455 0.05860716 0.009742157 -0.014713245
0.062050387 -0.0054137185 0.009850108 -0.03890421 0.034079894 0.04121041 0.07928672 -0.02761675
0.092374705 0.09422312 0.100966096 0.06610403 0.097193144 0.010468776 0.01984609 -0.037774958
0.018714493 0.09118829 -0.036515627 0.090700544 -0.010422865 -0.015666837 0.050849147 0.07636761
0.06246448 -0.035188846 -0.012253894 0.091483735 0.096300945 -0.004145722 9.014915e-05 0.067453295
0.041799553 -0.019362723 0.045249797 -0.010485094 -0.03469295 -0.008584507 -0.03364694 0.08270648
0.010576018 -0.031492524 0.0136844115 0.061508987 -0.044746812 -0.010059681 -0.005754029 -0.018373434
-0.039746307 -0.060861863 0.05978466 -0.08080642 -0.06294459 0.007457475 0.025782006 0.01935211
0.06472345 -0.035492465 0.062127255 0.07540466 -0.03885207 0.08646361 -0.011919131 0.068502955
-0.042867128 -0.038208846 0.087650694 0.064791985 -0.028692279 0.003477562 -0.018297695 -0.031709377
0.049498808 0.0543825 -0.029984696 0.011480521 0.08564567 0.07240492 0.020273454 0.08673271
0.044986177 0.09591412 0.051213898 0.047291886 0.00553283 -0.04121839 -0.04682532 -0.0345927
0.021089356 -0.060731325 -0.0021791048 0.07796246 0.037681818 -0.015117862 0.101224884 0.07336542
0.093977295 0.09762092 -0.012800354 0.0050931587 -0.03063878 -0.035273366 0.04683971 0.05629587
0.00918569 0.014704673 -0.016034026 0.019164702 -0.017779691 0.012037657 0.07401119 -0.03422322
0.073521025 -0.00060617924 -0.011008294 -0.0407665 -0.059114452 0.043481223 -0.042439807 -0.032606024
0.005033727 -0.04167686 0.0028620863 0.059204813 0.05329039 0.0021505358 -0.035732243 -0.07532279
0.06383968 0.031100996 -0.008689923 0.036456987 0.0119738225 -0.047171984 -0.03222534 0.04433727
0.03077464 0.079895444 0.038246565 -0.016858933 0.059313115 0.0900728 0.08392979 -0.033692066
0.054112624 0.0039168987 0.09866924 -0.02248768 0.040198915 0.042922337 0.069861986 0.013368266
0.09719696 0.024935022 -0.031090518 0.09313218 0.032843225 0.034355495 -0.038462356 0.025899986
0.06750737 0.09786977 0.020787552 0.042504482 -0.0052004294 -0.039319057 0.012375247 -0.011536592
0.007301325 -0.051047124 0.05259275 -0.02814805 -0.029741187 -0.034884434 -0.021068795 -0.0036544816
-0.03048366 0.051945515 0.05371082 0.0057751117 -0.030521387 0.09335346 0.04883243 0.035183627
-0.005416749 0.016553903 0.040642943 -0.051079083 -0.016562523 -0.01079881 0.039904166 0.07784389
-0.028572185 -0.021878477 0.03942934 0.010211451 -0.028869918 0.09691824 0.08695797 0.061919697
-0.044765122 -0.024857646 0.05449241 0.08098755 0.08042565 0.036506314 0.008321528 -0.033226766
0.05089178 -0.019502267 0.071146935 -0.0037651977 -0.032595318 -0.010226561 0.068227194 0.006519549
-0.038496416 0.042343806 0.0077045234 -0.026049633 0.030020418 0.067799926 -0.020346927 0.06115652
0.01420054 0.08625935 0.015893448 -0.019410506 -0.018830612 0.008475702 -0.07812583 -0.05197335
-0.050572023 -0.08485307 0.039231073 0.06829031 -0.008706126 0.009791593 0.022582017 0.058752593
-0.023202283 0.05281681 -0.02329439 -0.022481624 0.0817529 0.094939 0.049996965 0.050777845

net.3.bias f4 [40]
00000000: 5940 1dbd a9fe 783d 5af4 203d 25d5 2b3d
00000010: 60b7 d53c c799 6d3d ef70 65bd 638b 9fbb
00000020: 09a0 b53c 6e99 80bc 000b 803c b421 76bc
00000030: 469e 46bc 364d 423d a8a6 743c 13a1 623d
00000040: 2517 0f3c 3577 0fbc 7ee3 41bc 6997 9a3c
00000050: 2109 72bd a820 a0bc b762 bd3d dd85 1c3d
00000060: 2861 56bd 4466 69bd b159 7dbd ab5e 9f3d
00000070: 8d6d 8f3d 2656 973b 322a f4bb cc8a c2bc
00000080: 34bd e73b 2004 813d 66dd 74bd 9485 83bc
00000090: 5841 333d 8b54 113d 76cc 9f3d 5fd0 1cbd
-0.038391445 0.060789738 0.03929553 0.041951317 0.026088417 0.05800798 -0.056015905 -0.004868911
0.022171037 -0.015698161 0.015630245 -0.015022684 -0.012122696 0.047436915 0.014932312 0.055329394
0.008733545 -0.0087564485 -0.0118340235 0.018871026 -0.059090737 -0.019546822 0.09247344 0.0382136
-0.05233875 -0.056982294 -0.061853115 0.07781728 0.07003317 0.004618424 -0.007451319 -0.023747824
0.0070721153 0.06299615 -0.059781455 -0.016054906 0.04376349 0.035481017 0.0780267 -0.038284656

net.6.weight f4 [20, 40, 3, 3]
00000000: 42fa 693d 1c54 9c3c cffa 9b3c f5d4 e33c
00000010: 0f32 9f3d 6a6e 9bbc 08d5 2b3d 089a 673d
00000020: 5803 c4bc 34c9 043d fdd7 823d 2473 4d3d
00000030: d4a7 e53b 9eb3 abbb 3941 913d 73e4 2f3d
00000040: b8b4 f63b c2c5 843d d6d3 933d 72d4 133c
00000050: 75ad d73b 1c56 663d b84b 993b 1177 e73c
00000060: d3a8 e03c 3a7c afba a34a 9a3d 5c9e f33b
00000070: 9d11 f7bc d480 efbb e161 533d 4e5d 4c3d
00000080: 8271 f1bc 8f90 063c 0915 393d 3736 033d
00000090: 039c a6bb fc3c 7e3d 3945 883d ddb5 433d
000000a0: 2a86 a2bb c5f2 68bc 9716 26bd b555 823d
000000b0: 664d 653c 2b25 513d 85af f83c dda4 713c
000000c0: 39e3 a8ba 7b0a 9d3d 18ce 713d a965 d6bb
000000d0: b8f6 803d f4c1 8a3d db95 253d ff69 013c
000000e0: 8bd3 4bbc 3d23 523c 464b 333d 6576 873c
000000f0: a47b 943d b62e 43bb 4a3f cbbb 15cc a2bc
00000100: 484b eebc f6ba 283c c78e 453c 39e2 183c
00000110: 3af1 16ba 1d79 9d3c fcf4 a53c e903 443c
00000120: af19 3dbd c493 dbbc 8d60 723c dc28 523c
00000130: ae17 993c 512d 82bd 7049 36bd 494d 183d
00000140: ff6c 923c e113 f83c 3411 98bc 3566 1d3d
00000150: a315 253d 6556 c93b 2e10 343d c4ff bcbc
00000160: 2115 85ba 99aa d2bc d390 eb3b d7bb b03c
00000170: efe0 833d 8bfd 0c3d 2da4 823d 039f afbc
00000180: 045e 823c 06dc cfbc f8cc 293c d269 58bd
00000190: d3a7 72bc f479 25bd 94dc 82bd a98d c9bc
000001a0: 358a 88bd 821d 09bd 3d45 a9bc e7a1 933c
000001b0: ae99 04bd 53ff 5bbd 60be c03b 46e5 57ba
000001c0: c31b 6c3c 6813 e3bc 0f13 bdbb b4ba 3fbc
000001d0: aeb6 e3bc b562 843d 81b2 183d 4a4c c1b9
000001e0: 1dc1 8a3d 1b24 673d 4710 463c e008 29bc
000001f0: 7e99 a9bc d345 933d 90d9 533d c926 453d
00000200: 5dbc 903d 05b0 853c 58de aebc f150 e33c
00000210: 6e23 fabc 6917 91bc c4f1 a5bc ab7e 0ebc
00000220: 0d8b 9b3c 09e3 403c 8e93 513d 2e1d 08bd
00000230: 8cf5 6ebc 8f92 85bc f846 2c3d fec4 7abc
00000240: 2491 0e3d d43f 2bbb 8fea 9a3c 2055 493d
00000250: de55 563d 8a7f 9b3d 8f66 adbb 0ccc e8bb
00000260: 3c2d c4bc 009a 95bc ea05 6dbd f598 03bc
00000270: 9c67 adbc 8903 14bd 9726 25bd 91a9 763d
00000280: 2ff2 16bd b144 9b3b 06ac 993d d759 923d
00000290: e122 0b3d 1c49 1e3d 61f2 983d de24 663d
000002a0: cfa8 f73c 33d6 a23d 8018 e73c 19b4 9f3d
000002b0: efcd 693d 0675 923b d167 c7bc e4f9 873d
000002c0: 692a 6b3d 016a 263d 749c acbc 7c5b 62bc
000002d0: 7858 5f3d 4236 723c fcd2 7b3d 50b7 d53c
000002e0: aa7a 923d beb3 963c dc10 d5bc b5dc 933c
000002f0: ee7b b3bb 70f8 38bb 9503 cf3c 0ccc 9a3c
00000300: bfd8 b2bc c9ae 903d f054 7e3c d83e 133d
00000310: 105c eabc 7df6 803d 36d4 d6bc 6d3d 433d
00000320: 2202 573d 3a72 3d3d be21 c5ba e5d5 823b
00000330: c4b5 903c 27e1 813d 5134 a23c 038c 18bd
00000340: 6a69 e53c ec3d 133d 1261 0bbd 9a1d 09bc
00000350: 124a 8b3c d1c0 923c 2260 753d afe3 cbbc
00000360: 69b4 febc 5eaf 523a 607c 4c3c cfe2 58bb
00000370: 3f7d 433c 9111 663c 6365 32bc a01d bf3b
00000380: 621f 7abc 4895 603d 9427 983d 8029 cc3c
00000390: 3fe8 c6bc a5c3 6e3d 87a2 953d 3377 4c3d
000003a0: 5732 3d3d 2bb8 583d baa5 e63b 9bba 753c
000003b0: 68a3 a73d b328 8a3d e0c0 68bc 641f 9b3d
000003c0: 8e61 2dbc db6b 073d a6a6 26bc 505d 833d
000003d0: ccf4 813d 19f8 debc 4e2f 8ebc ea9e 34bc
000003e0: 4da6 c6bc cdc1 3c3d 04f9 493c 8617 903b
000003f0: d637 973d 0313 3c3d 7811 bcbc 5e40 a53d
0.05712343 0.019083075 0.019040493 0.027811507 0.0777322 -0.018973548 0.04195121 0.05654338
-0.023927376 0.032418445 0.06388853 0.050158635 0.007008532 -0.005239918 0.07092518 0.042942476
0.0075288676 0.06483032 0.07218139 0.009022819 0.006581957 0.056234464 0.004678216 0.028255017
0.027424252 -0.0013388463 0.07533767 0.0074346494 -0.030159766 -0.0073090587 0.051607016 0.04989367
-0.02947307 0.008213176 0.045186076 0.032034125 -0.005084516 0.062069878 0.06653828 0.04778086
-0.0049598413 -0.014218037 -0.040548887 0.063640036 0.013995504 0.051060837 0.030357132 0.014748779
-0.00128851 0.076680146 0.059034437 -0.0065428806 0.06297058 0.06775275 0.040426116 0.007898807
-0.0124405725 0.012825784 0.04377296 0.016535947 0.07250145 -0.002978248 -0.006202613 -0.019872705
-0.029088631 0.010298481 0.012057967 0.009331279 -0.00057579915 0.01922279 0.02025842 0.011963823
-0.046167072 -0.026803859 0.014793527 0.012827124 0.01868805 -0.063563 -0.04450363 0.03718308
0.017874239 0.030282917 -0.01856289 0.03842755 0.040303838 0.0061443322 0.043960743 -0.023071177
-0.0010153392 -0.025716113 0.0071888953 0.021573944 0.06439387 0.034421485 0.0637897 -0.021438127
0.01591397 -0.02537347 0.01036381 -0.052835293 -0.01481052 -0.040399507 -0.06389728 -0.024603682
-0.06666986 -0.033475406 -0.020662898 0.018021537 -0.032373123 -0.053710293 0.0058820695 -0.00082357635
0.014410916 -0.027719215 -0.005770094 -0.011702228 -0.02779707 0.06464139 0.03727961 -0.00036868668
0.06775115 0.056430917 0.012088842 -0.010317057 -0.020703074 0.07191052 0.051721156 0.04813269
0.070671774 0.016319284 -0.021346256 0.027748557 -0.030534472 -0.017711358 -0.020256884 -0.008697192
0.018987203 0.011772879 0.05116611 -0.033230953 -0.01458491 -0.016305236 0.04205987 -0.015305756
0.034806386 -0.0026130574 0.018910674 0.049153447 0.052327983 0.075926855 -0.005291767 -0.0071044024
-0.02394735 -0.01826191 -0.05786697 -0.008032073 -0.021167569 -0.036136184 -0.040320005 0.060220305
-0.036852058 0.0047384133 0.07503514 0.07146042 0.03396881 0.03864394 0.07468105 0.056187503
0.030231861 0.079510115 0.028209925 0.07798023 0.05708116 0.0044695167 -0.024341496 0.0663946
0.057413492 0.040628437 -0.021070696 -0.013815757 0.05452773 0.014783444 0.061480507 0.026088387
0.071523026 0.018396255 -0.026009016 0.018049577 -0.00547742 -0.0028224252 0.025270263 0.018896125
-0.021831868 0.070645876 0.01552318 0.035948604 -0.028608352 0.06297014 -0.026224237 0.047666002
0.05249227 0.046251513 -0.0015039963 0.0039927834 0.017664798 0.063417725 0.019800337 -0.0372429
0.028004367 0.035947725 -0.03402812 -0.008368874 0.017003093 0.017914208 0.059906133 -0.024888841
-0.031091886 0.0008036996 0.012480825 -0.0033094173 0.011931716 0.014042274 -0.01088843 0.005832389
-0.015266271 0.054829866 0.07429424 0.024922132 -0.024280665 0.05829205 0.0730639 0.049918365
0.046190586 0.05291001 0.007038799 0.0149981035 0.08185464 0.06746044 -0.014206141 0.07574347
-0.010582341 0.033061843 -0.010171568 0.06414282 0.063455194 -0.027217912 -0.017356541 -0.011024216
-0.02424922 0.04608326 0.012327436 0.0043973355 0.07383697 0.04591657 -0.022957548 0.08068918

net.6.bias f4 [20]
00000000: 8699 f13c f55c 053d 898f 703d f788 853d
00000010: dd63 1bbd 3c35 e93c cbe6 733d 8158 2d3d
00000020: f0c1 043d 9d5c a83a f9a3 85bc 636d 5ebc
00000030: 9973 39bd d06c 3d3d 9a63 e7bc 5498 a03c
00000040: 5764 30bc b60a 533d edca 6a3c 0a3c e0bc
0.029492151 0.032559354 0.058730636 0.065202646 -0.037937034 0.028467767 0.059546273 0.042320732
0.032411516 0.0012844984 -0.01631354 -0.0135758845 -0.04527626 0.04624635 -0.028245736 0.019603886
-0.01076611 0.051523887 0.014330608 -0.027372379

net.9.weight f4 [10, 20, 3, 3]
00000000: 887d 6abc 5d2f 213d 9dc3 ba3c a1fa 683c
00000010: 863c 0abd 10ee 3d3c f6ad 113d 553b 7dbd
00000020: 15d7 6d3d 832a 153a 9aff 5bbd 084e 82bd
00000030: b304 a7bd 0142 50bd 0a90 08bd b940 d4bc
00000040: 0ac7 6abd 4342 9ebc d85f 403d f870 9b3c
00000050: 5244 88bd 6453 9abd 9827 923d 390d 883d
00000060: 6946 273c b2ee 37bc fe9f 54bb f428 1cbd
00000070: ddec 63bc d8d3 c1bc 9265 a83c 51bb 46bc
00000080: 6c42 ff3c 0fdb 6e3d 1132 ac3c a568 9ebd
00000090: 37e4 a13c 521d 9ebd bbcb 2f3d 05a7 28bd
000000a0: 4125 6e3d e57d 29bb e415 bfbb 01f3 8dbd
000000b0: 52bd 96bd a0d8 bdba fd31 2bbd a639 14ba
000000c0: d3c9 6c3d cb84 13bd 85f4 93bb 5576 1e3d
000000d0: 0df4 85bd f4aa f83c bf17 f0bc 2e40 10bd
000000e0: be1a 96bd 12bb 6a3d f8d8 423c cae7 52bd
000000f0: ac9d 603c 40b3 063d 45fa 7c3d 3b35 e93b
00000100: 211d 133d 1050 5d3c 36ed 69bd 61ca 3a3c
00000110: f978 37bd 7f29 e83b 0f54 38bd 5f73 5fbc
00000120: 964f 353d 48aa 693c 23d2 19bd dcb9 183d
00000130: a058 1d3d ec55 5ebd bd0b 3b3d 536d 763d
00000140: 6f69 1f3d 6e4b 47bd 63b6 563d cd01 1fbd
00000150: 22fc 8cbd e232 e7bb ab82 25bd 95d9 2abc
00000160: 791b dbbc fbfd 6c3d 7c38 e63c 0c16 543d
00000170: 7038 ca3c cceb 88bc a97d bebc e4fd 903c
00000180: a3df 283c 8ed3 b03c dfdb d7bc ab11 72bd
00000190: 4d37 6fbc dca6 34bd ec44 42bc edfe b43c
000001a0: 61ae 82bc c3e7 3abb 3c0b 10bd 76c0 d8bc
000001b0: 2fc9 b2bc 52a8 81bc 4945 9cbb b736 893d
000001c0: d2f4 55bc e2fd 6b3d 6a30 e7bb a1d4 1ebd
000001d0: 3208 203c 7de2 393c fa01 543d 3597 003b
000001e0: d522 e83b 56af 5d3d 264c 28bd ed70 8dbd
000001f0: 69bc 343d ab75 f2bc 258d 4fbd ae41 5f3d
00000200: 4cb4 473b 4dcd 1fbd 7803 fbbc 2766 88bd
00000210: c23c 313d 436e a0bd de8a 4bbd 44b7 5dbd
00000220: 26db 563d b891 f03c 18fb a3bd 693e 9cbd
00000230: 9481 39bd c81c 50bd 620c 4fbd ad80 6fbd
00000240: b0b8 a9bc 5ddc 473d d0c9 38bd cf33 77bd
00000250: afcb 81bd b768 28bd f9f2 86bd fa0c 393b
00000260: a71b ad3c 69f1 833d 7197 61bd baa7 a4bd
00000270: 3eea e5bc 5097 95bd 96f5 e83c 3e1c 4dbd
00000280: e7e8 123d e456 ae3b 3827 c4bc 692e 773d
00000290: a94a b43c d793 643d 8bf1 c5bc 58cd c1bc
000002a0: 34d1 593d 5f7d a4bd b293 313d d580 443d
000002b0: a16a 643d eba4 2bbc 22a3 1bbc 0e81 713d
000002c0: 9b1e 993b fbf9 423d 30fc 453c f302 66bd
000002d0: 1460 683d 0a1e 8e3d 92bc 00bd b1ae 96bc
000002e0: 0904 88bc ff47 123d f1d7 88bd d863 1d3c
000002f0: 1bff e23c 3f3f 9abb 44e1 6e3d 35e5 a9bd
00000300: 2bd3 833d f988 e2ba 9d32 9abd dca0 98bc
00000310: cdea 3e3d c289 523d 2288 1abd ae09 913d
00000320: f1f9 d53c a812 933d 09d4 4c3d 8cd0 663d
00000330: 9f0e 62bd eefc 9cbd 4306 913d 8e31 333c
00000340: 42b6 513d f034 52bd ff50 da3c 5a3f 89bd
00000350: c881 7f3d 18cd 223c cc16 123d 0c15 093d
00000360: 0d91 41b8 9e81 e33c 6810 a23d 1f4d 2b3d
00000370: 50b9 d4ba cfb0 69bc c5f7 97bd 5d09 a7bd
00000380: a17b c2bc 91f1 753d 49fc 87ba c26a 143c
00000390: 7631 813d 4394 72bc c554 90bd 0d45 4abd
000003a0: b016 30bd ce8e 643d 20b8 a73d cd2b 16bd
000003b0: 28ef 783d ff14 5dbc eecc 35bd bd2b af3c
000003c0: 99c2 013b 638c 993d 38ef fa3c ff55 1a3d
000003d0: ead0 2c3b ba19 9a3c 8b1b b4bd c1e3 b2bc
000003e0: 0996 be3c 597c 7e3d 7536 823d 4593 99bd
000003f0: 679f 993d 7a2c bd3d 1272 ecbc 63ad b03c
-0.014312156 0.03935181 0.022798354 0.014219911 -0.033749126 0.011592403 0.035566293 -0.06182416
0.058066446 0.00056902337 -0.053710558 -0.063625395 -0.08155193 -0.050844196 -0.03334049 -0.025909768
-0.057318725 -0.019318705 0.046966404 0.018974766 -0.06653656 -0.07535437 0.07136458 0.06643147
0.010209658 -0.011226343 -0.0032443996 -0.038124993 -0.013911453 -0.023660585 0.020556245 -0.012129621
0.031159602 0.05831438 0.021019967 -0.07734803 0.019762142 -0.07720436 0.042918902 -0.041174907
0.058140997 -0.0025862393 -0.005831467 -0.06931115 -0.07360329 -0.0014484115 -0.04179572 -0.0005654342
0.057809662 -0.036015313 -0.004515233 0.03868707 -0.065406896 0.030354954 -0.029308198 -0.035217457
-0.073293194 0.05730731 0.01189255 -0.051490583 0.013709467 0.03288579 0.061762113 0.0071169413
0.03591645 0.013507858 -0.057110988 0.01140079 -0.044793103 0.007085025 -0.04500204 -0.013638346
0.044265352 0.01426179 -0.037553918 0.037286624 0.038414598 -0.05428116 0.04566549 0.060162853
0.03891891 -0.04865592 0.05242003 -0.038820077 -0.06884028 -0.0070556263 -0.040407818 -0.010427852
-0.026746498 0.057859402 0.028103106 0.051778838 0.024685115 -0.016714 -0.023253279 0.01769919
0.010307225 0.021585252 -0.02634996 -0.05909888 -0.014600587 -0.044104442 -0.011857253 0.022094214
-0.015952291 -0.0028519488 -0.035166964 -0.02645896 -0.021824447 -0.015827332 -0.0047690016 0.06699889
-0.013058858 0.05761517 -0.007055332 -0.038776997 0.009767579 0.011345503 0.051759697 0.0019621376
0.0070842304 0.05412229 -0.041088246 -0.069063045 0.044124994 -0.029597124 -0.050671715 0.054505996
0.0030472456 -0.03901415 -0.030641302 -0.06660109 0.043270834 -0.07833531 -0.04969298 -0.054129854
0.05245509 0.02936636 -0.08006877 -0.07629091 -0.04528959 -0.050808698 -0.05054892 -0.058472324
-0.020717949 0.04879414 -0.04511434 -0.060352143 -0.06337678 -0.04111549 -0.06589312 0.0028236494
0.02113135 0.0644253 -0.055076066 -0.08039804 -0.028065797 -0.07304251 0.028437417 -0.050075762
0.035866644 0.0053204168 -0.023944482 0.060346995 0.022008257 0.055805054 -0.024163028 -0.023657486
0.053178027 -0.08031725 0.043353744 0.047974426 0.05576575 -0.010476331 -0.009499343 0.058960967
0.004672838 0.04760168 0.012084052 -0.056155156 0.056732252 0.06939323 -0.031429835 -0.018393846
-0.016603487 0.035713192 -0.066818126 0.009606324 0.027709534 -0.0047072466 0.0583203 -0.08295671
0.064367615 -0.0017283253 -0.07529185 -0.018631391 0.046610642 0.051400907 -0.037727483 0.070819244
0.026120158 0.07181293 0.0500069 0.05635123 -0.055189725 -0.0766543 0.070812725 0.010937108
0.051199205 -0.051320016 0.02664995 -0.067015365 0.06237963 0.0099365935 0.035666272 0.033467337
-4.6149875e-05 0.027771767 0.079132855 0.041821595 -0.0016229544 -0.014263346 -0.07420305 -0.08156083
-0.023740591 0.06004483 -0.001037487 0.009058656 0.06308262 -0.014805856 -0.070474185 -0.04938226
-0.042990386 0.05580025 0.08189416 -0.036662865 0.060774952 -0.013493775 -0.04438489 0.02138316
0.0019799827 0.0749748 0.030631647 0.03767967 0.002636964 0.018811096 -0.08794316 -0.021837117
0.023264902 0.062130306 0.06358043 -0.074987926 0.07501107 0.09236999 -0.028862987 0.021567052

net.9.bias f4 [10]
00000000: 28e7 8ebd a019 71bd 191d 3dbd 2eca 3dbc
00000010: e244 573d c808 e9bc cbd8 5fbd 79fb b23c
00000020: cd6d d43b a0ec c0ba
-0.06977683 -0.05886233 -0.046170328 -0.011583848 0.052555926 -0.02844657 -0.05465011 0.021848427
0.006482816 -0.0014718957

net.12.weight f4 [3, 10, 4, 4]
00000000: d7df b7bd c2d4 243d 7275 863a f5da 423d
00000010: e97c c2bc c07d 943b b0d9 913a 4178 87bd
00000020: 3208 1a3d 378d 1c3d 3215 833c f1eb 763b
00000030: d523 773d 897b d03a 46f4 043d 7151 d2b9
00000040: 3c1a 083d 8655 a63d 6285 823d 1b93 14bd
00000050: 7164 163d 4acf dfbc c7c1 5c3d 7a79 09bd
00000060: 90e3 723d d7cd a33d fe69 2c3d 572a 29bd
00000070: 9250 0fbc 1e92 843d 1b4a 893c a478 3d3d
00000080: 024a fabb e57f bcbc 0434 013d 7641 97bb
00000090: edc3 bdbc 7063 fe3a c2a4 2c3d c51c b63c
000000a0: 28a0 4a3c fc9d c23d 9a3f 74bd 03d8 a83c
000000b0: dbe8 4cbc 8752 d6bc 6dfc 8f3d aa78 463d
000000c0: 236e b53c 58df 51bd 3803 873d 7186 333b
000000d0: f0c0 86bc d630 48bd 8ebb 2e3d 8201 46bd
000000e0: a257 f0bc 8c8e 9b3d f86a 6cbc 3f8a 64ba
000000f0: 42dc 323b ded2 43bd 52f8 84bd 9a5b 68bc
00000100: 9fd7 6d3d 85e4 803d ca63 5e3d 1c0d 703d
00000110: f0b1 0b3d eb0b 853d 4d69 383d 24d7 623d
00000120: 4b38 8fbd ebdf cc3c 4845 92bc dc13 16bd
00000130: de3b 89bb 6261 5abc 9557 c7bb 503f 8f3d
00000140: 508c 883d 8427 19bc 99db 2a3d a1d7 e03c
00000150: cc1b aa3b 814e 50bd f9f8 17bd b44f a13d
00000160: 713e 2fbd 7951 1cbd 593f bd3d 7758 893d
00000170: 752a 313d 6504 f03c 0acf 733d 89ea c4bc
00000180: 6507 e53c 1053 24bd 3ca6 96bd e494 1a3d
00000190: b584 603d f26f 663c 26b0 0b3c b80c 063d
000001a0: b0f7 c53c 3431 713d dc8a 793c 94a6 7d3d
000001b0: c8fe 4bbd a589 ca3d a462 debb 7cd5 ebbc
000001c0: 01ad 273d 1c3e 23bc 6804 993b 75e9 cebb
000001d0: 4e50 71bd d5fb ae3c f986 67bd 4e1d 0a3d
000001e0: 8449 2bbd 50e7 51bd df48 e33d 4f96 443d
000001f0: 43df 56bd 338d 473d 73f3 60bc 5af2 4cbd
00000200: c221 51bd c01a 91bd 0ad3 963d b069 9cbc
00000210: 64fe 75bc 351b cebc e948 0cbd 6167 bebb
00000220: 5b44 c83c 209e 9cbc c142 f339 d742 ee3c
00000230: 4539 7a3d 5a0e 7d39 6bfe 87bc 363b 7ebd
00000240: c207 913c b448 4bbc 83d3 b7bd 90f1 bcbd
00000250: 024d 713d ace9 30bd c045 463d 3921 7abc
00000260: 8fe2 debc a4e6 0abc 0076 96bd 3210 663d
00000270: 989f 20bd c897 dc3c a2bf 253d c969 68bd
00000280: f289 aabc 86f9 b4bd d5ea 3e3d ba57 77bc
00000290: c412 b6bd 470b dcba 2d00 da3c 323d e8bd
000002a0: a3c4 a6bd aa2d 19bd 2009 5ebd d007 f1ba
000002b0: 86c0 e5bc 5500 9d3c 4ccf f83c 4903 193d
000002c0: 71f3 923d 94e6 7d3d 19fe 14bd 5a1a cb3d
000002d0: 1c32 423d 2d3d 99bd 2fd8 a1bd bf94 a03d
000002e0: 9f63 ab3c 07fe 0dbd 713e 30bd f1e7 2dbc
000002f0: f93e f23c 04bc dcbd d18c acbc 5bad abbc
00000300: a7e3 a4bd 5fa7 70bd 6740 9f3d 9a74 ddbc
00000310: 0b68 583c 61f3 e3bd 9bce 083d 77e2 42bc
00000320: cb06 e5bd a549 73bd 8426 763d f3e5 0a3c
00000330: 25c2 41bc 03c8 5c3d c77f 093d 442a 803d
00000340: 647a b4bc e428 403c 024f 803d df24 d43d
00000350: 0e90 a2bd f32e 093d 7d56 123d fd32 0fbd
00000360: 4fc2 2abd c54a 56bd cbd1 cdbd c802 abbb
00000370: 6bb5 3ebd cff1 823b 48a7 373d 0cf0 b43d
00000380: b325 36bc b035 aa3c 5af9 b8bd 223f 993d
00000390: 0c5f d53c 802d 3e3d 10b6 423d 2578 e23b
000003a0: d00e fcbb 1067 85bd 5729 243d 9082 e6ba
000003b0: 477f b93d 9d83 2abd ca23 863d 3bcf 0dbd
000003c0: 9aec af3d 58ad a5bd 8027 babd 31d4 bb3c
000003d0: 563d 55bd d2be 34bd 38d7 cbbd bdbc 56bd
000003e0: a0e8 dbbd abf7 0fbd ff3b 043d 7095 83bd
000003f0: ed47 a4bd 2beb b1bd fee5 ec3c ef50 b63d
-0.08978241 0.040241964 0.001025839 0.047572095 -0.023741202 0.004531592 0.0011127498 -0.066147335
0.037605472 0.03822061 0.016001318 0.0037677253 0.060336906 0.0015905957 0.03245952 -0.00040115
0.033228144 0.08121781 0.06373097 -0.036273103 0.036716882 -0.027320523 0.053895738 -0.033563115
0.05929905 0.07998245 0.04209327 -0.041300144 -0.008747237 0.06473182 0.016758969 0.04625763
-0.007638217 -0.023010204 0.031543747 -0.004615958 -0.023164714 0.0019408297 0.042149313 0.022230515
0.012367286 0.095027894 -0.059630968 0.020610815 -0.012506689 -0.026162399 0.07030568 0.048454918
0.022147244 -0.051238388 0.06592411 0.0027393366 -0.016449422 -0.0488747 0.042659335 -0.04834128
-0.029338662 0.07595548 -0.0144298 -0.000871811 0.0027291928 -0.04780852 -0.06492676 -0.014181996
0.05806696 0.06293587 0.054294385 0.058606252 0.03410524 0.06496414 0.045022298 0.055380955
-0.06993159 0.025009116 -0.017855301 -0.036640033 -0.004188045 -0.013328882 -0.0060834386 0.06994498
0.066673875 -0.0093478 0.04171333 0.02744657 0.005191302 -0.050856117 -0.037102673 0.0787653
-0.04278416 -0.038163636 0.09240598 0.067063265 0.04325338 0.02929897 0.05952362 -0.024037616
0.027957628 -0.040118277 -0.073559254 0.03773965 0.05481406 0.014064776 0.008525884 0.032726973
0.024165958 0.058884814 0.015230861 0.06192644 -0.049803525 0.09889535 -0.006786661 -0.02878832
0.040936474 -0.0099635385 0.0046697147 -0.0063144513 -0.058914475 0.021360317 -0.056525204 0.033719353
-0.041818157 -0.051245987 0.110978834 0.047994908 -0.052459013 0.048718642 -0.013729918 -0.050035812
-0.051057585 -0.0708518 0.07364471 -0.019093364 -0.015014265 -0.025159458 -0.03424922 -0.0058106636
0.024446657 -0.019118369 0.00046398307 0.029084606 0.061089773 0.00024133307 -0.016600808 -0.062068187
0.017703895 -0.0124074705 -0.089758895 -0.09225762 0.05891133 -0.043191597 0.048406363 -0.01526671
-0.02720764 -0.008477841 -0.073467255 0.05616779 -0.0392147 0.026927844 0.04046596 -0.05674151
-0.02081773 -0.08836655 0.046610672 -0.015096599 -0.08890298 -0.0016788029 0.026611412 -0.11339797
-0.08142974 -0.037397064 -0.05420792 -0.0018389169 -0.028045904 0.019165197 0.030372284 0.03735665
0.07175339 0.061987475 -0.03637514 0.099171355 0.04741107 -0.074823715 -0.07902562 0.07840871
0.020921526 -0.034666087 -0.0430283 -0.010614381 0.029571043 -0.10778049 -0.02106324 -0.020956686
-0.08051234 -0.058753368 0.07775956 -0.027033139 0.0132083995 -0.11130405 0.03340016 -0.011894814
-0.11182936 -0.059396405 0.060095325 0.008477676 -0.011826073 0.053901684 0.033569124 0.062580615
-0.022031017 0.011728499 0.062650695 0.10358595 -0.079376325 0.03349204 0.035727013 -0.034960736
-0.041689213 -0.0523174 -0.100497805 -0.0052188374 -0.046559732 0.003996111 0.044837266 0.08834848
-0.011117387 0.020777553 -0.09031935 0.07482745 0.026046298 0.04643011 0.04753691 0.006911295
-0.0076921955 -0.06513798 0.040078487 -0.0017586518 0.09057479 -0.041629422 0.06549795 -0.03462146
0.0859005 -0.08089703 -0.09089565 0.02292833 -0.052060448 -0.044127293 -0.09953159 -0.05242609
-0.10737729 -0.035148304 0.03228378 -0.06424987 -0.08021531 -0.08687433 0.028918263 0.089021556

net.12.bias f4 [3]
00000000: 106d 6d3d 3601 553d 39b9 92ba
0.05796534 0.052003108 -0.0011194117
