model_good.pkl (torch, 72905 bytes, 10 tensors)

net.0.weight f4 [20, 3, 3, 3]
0	0xbe41439e	-0.1887345
1	0x3dee4b5b	0.11635467
2	0xbe1d34ea	-0.15352216
3	0x3d7efe18	0.06225404
4	0x3e112646	0.14174756
5	0xbe3dd57d	-0.1853847
6	0xbe167aa7	-0.14695226
7	0x3df4a0d8	0.11944741
8	0x3dbc7bb3	0.09203281
9	0xbd2349b1	-0.0398652
10	0x3d72c69c	0.05927144
11	0xbe0b7eb2	-0.13622549
12	0xbd1a5ef7	-0.03768822
13	0xbe421e32	-0.18956831
14	0xbd9b8dcf	-0.07595407
15	0x3daa954d	0.08329258
16	0xbe0ce472	-0.1375902
17	0xbcdda556	-0.027056377
18	0x3dcfe295	0.10150639
19	0x3d8eed50	0.069788575
20	0x3bda0c92	0.0066543305
21	0x3d1090cc	0.03529434
22	0x3df065eb	0.11738189
23	0x3e133e09	0.14379133
24	0xbc666501	-0.014062167
25	0xbc804621	-0.01565844
26	0xbd503965	-0.050835986
27	0xbe240e44	-0.16021067
28	0xbe417ca9	-0.1889521
29	0xbc76f6e2	-0.01507351
30	0xbdcb0182	-0.09912397
31	0x3e0908af	0.13382219
32	0xbe2ea186	-0.17053804
33	0x3d256dae	0.0403878
34	0xbe495410	-0.19660974
35	0x3de21dab	0.11040815
36	0xbddeb3c6	-0.10874133
37	0x3da1dbb1	0.07903231
38	0x3db12dab	0.086512886
39	0xbd2f18f3	-0.042748403
40	0x3cfe061e	0.031008776
41	0xbd451941	-0.048119787
42	0x3d175b23	0.03695215
43	0xbe1dd460	-0.15413046
44	0x3cd5eb59	0.0261132
45	0xbe097e70	-0.13427138
46	0x3cc64848	0.024204388
47	0xbd8f5324	-0.0699828
48	0x3e0832bc	0.13300604
49	0x3d9e962c	0.07743487
50	0xbe0cd4d4	-0.13753062
51	0x3da51217	0.08060091
52	0xbda6d6c1	-0.0814643
53	0x3d25c9e0	0.040475726
54	0x3d0f9b85	0.035060424
55	0xbe269632	-0.16268232
56	0xbe13d131	-0.14435269
57	0x3d484c68	0.04890099
58	0x3db50a71	0.08839882
59	0xbe427d1d	-0.1899304
60	0x3c819514	0.015818156
61	0xbd9a93f9	-0.07547755
62	0xbcf98846	-0.030460488
63	0xbca37f7d	-0.019958252
64	0xbdc01dc2	-0.09380676
65	0x3d930edf	0.07180571
66	0x3d94f45a	0.07273169
67	0xbe2649cc	-0.16239089
68	0x3e22e954	0.1590932
69	0xbe0f1fb0	-0.13976932
70	0xbe50e7c7	-0.20400916
71	0x3e1ed005	0.1550904
72	0xbe373eb5	-0.17895015
73	0x3e32084d	0.17385979
74	0xbd993696	-0.074811146
75	0xbae8bda2	-0.001775671
76	0x3e13c83b	0.1443185
77	0xbd77a8dd	-0.060463775
78	0xbd85fae9	-0.06541998
79	0xbe44acf7	-0.19206606
80	0xbdc921cf	-0.098209016
81	0xbe3a6d93	-0.18205862
82	0x3e37cab3	0.17948417
83	0xbe0dc057	-0.13842903
84	0xbe3bfaff	-0.18357466
85	0xbe3746a5	-0.17898043
86	0xbb7f139d	-0.0038921603
87	0x3c15bb4e	0.009138895
88	0xbd8af41e	-0.06784843
89	0xbe2ceeb1	-0.16887929
90	0xbb0abddd	-0.0021170296
91	0x3d9141fb	0.07092663
92	0x3dafb768	0.08579904
93	0x3e305e76	0.17223534
94	0xbdc1d2a4	-0.09464005
95	0xbbeb7c17	-0.0071864235
96	0xbde2b705	-0.110700645
97	0x3e01fa22	0.12693074
98	0x3da9c364	0.08289221
99	0x3e3798b1	0.17929341
100	0x3e07d258	0.13263834
101	0xbddb76f0	-0.10716045
102	0x3e05ab82	0.13053706
103	0xbe244372	-0.16041353
104	0xbe1abd0f	-0.15111183
105	0xbe114481	-0.14186288
106	0xbdd9c741	-0.10633708
107	0xbd2b8d8d	-0.04188304
108	0xbdd87e89	-0.1057101
109	0x3d481204	0.048845306
110	0x3cefcfc5	0.029273877
111	0xbd7cdfa8	-0.061736733
112	0xbe23a81e	-0.159821
113	0xbddb5a50	-0.10710585
114	0x3da48791	0.0803367
115	0xbcb421d9	-0.021988796
116	0xbe4af9f4	-0.19821912
117	0xbcaaf1f9	-0.020867335
118	0x3da3688a	0.079789236
119	0x3e42aa73	0.19010334
120	0x3ccd5bb8	0.025068149
121	0xbb09de1e	-0.0021036933
122	0xbcb71906	-0.0223508
123	0x3dec5177	0.11538976
124	0x3e0254fa	0.12727728
125	0xbdb2fe15	-0.087398686
126	0xbd0af9f4	-0.03392978
127	0xbd81c7e2	-0.06336953
128	0x3dc1b526	0.094583794
129	0xbcb6f4bb	-0.022333493
130	0x3e1266eb	0.14297073
131	0x3e1135fd	0.14180751
132	0xbe2fce8c	-0.17168635
133	0xbe0df2b2	-0.13862112
134	0xbdc70502	-0.09717752
135	0xbe4ad669	-0.19808353
136	0x3e074aef	0.13212179
137	0x3db72434	0.08942452
138	0x3d9830e1	0.07431198
139	0x3da7662d	0.08173785
140	0xbd349626	-0.044088505
141	0xbd87b409	-0.06626136
142	0xbe06f92c	-0.13180989
143	0x3dfcd194	0.12344661
144	0xbe14e528	-0.14540541
145	0xbe193c47	-0.149644
146	0x3dfc359d	0.123149134
147	0x3bed7678	0.0072467886
148	0x3d2a19e5	0.0415286
149	0x3ddc5729	0.10758812
150	0xbdc71069	-0.09719927
151	0x3d6be6ee	0.05759328
152	0x3c1881cb	0.009308289
153	0x3e29d10c	0.16583651
154	0xbdb08979	-0.08619971
155	0x3dade62f	0.0849117
156	0x3c032e85	0.008006697
157	0xbd7d81ba	-0.061891295
158	0xbe166453	-0.14686708
159	0xbdfe6670	-0.12421882
160	0x3e1e4a3b	0.15458004
161	0x3d940af0	0.07228649
162	0x3e01e2a9	0.1268412
163	0xbd7050af	-0.058670696
164	0x3d66fb05	0.056391735
165	0x3d401e65	0.046903986
166	0x3bf61dbe	0.0075108698
167	0x3e3acd1a	0.18242303
168	0x3e1bcd55	0.15215047
169	0x3d9befde	0.076141104
170	0x3dfd4784	0.12367156
171	0xbdf1f055	-0.11813418
172	0x3dece8d9	0.1156785
173	0xbb41e034	-0.0029583098
174	0xbbb60cd4	-0.0055557285
175	0x3d39134e	0.045184426
176	0xbd89d3db	-0.06729861
177	0xbd793c33	-0.060848426
178	0x3d8ba59b	0.06818696
179	0x3de1fb0f	0.11034214
180	0xbe4adb39	-0.1981019
181	0x3d2ab7de	0.041679256
182	0x3de707b4	0.11280766
183	0xbe051614	-0.12996703
184	0x3e05a9a3	0.13052993
185	0xbe18f1c8	-0.14935982
186	0x3ccb32f2	0.024804566
187	0xbdfed2f9	-0.124425836
188	0x3da49380	0.08035946
189	0x3e45baa8	0.19309485
190	0x3e39a78d	0.18130322
191	0xbc9ec6e6	-0.019381952
192	0xbe0f50b8	-0.13995636
193	0xbde4f1ca	-0.1117893
194	0x3de689a3	0.11256721
195	0xbcc14600	-0.023592949
196	0xbe0adfde	-0.13561961
197	0xbdd077f0	-0.10179126
198	0x3d7bb161	0.06144846
199	0x3e43de13	0.19127683
200	0x3c8883a0	0.016664326
201	0x3e208096	0.15674052
202	0xbdfb4bba	-0.12270303
203	0x3df1c4d2	0.118051186
204	0x3e32c761	0.1745887
205	0xbe1fdaaf	-0.15610765
206	0x3e34c3ba	0.17652789
207	0xbdcc59e3	-0.09978082
208	0x3c2080ff	0.00979638
209	0x3e240736	0.16018376
210	0xbdd38ce4	-0.10329607
211	0x3e05d251	0.1306851
212	0xbdf385d1	-0.11890758
213	0x3d27a4e3	0.040928733
214	0x3dc3d0fc	0.09561345
215	0xbe270dd4	-0.16313869
216	0x3e1d1876	0.15341362
217	0x3e05de4c	0.13073081
218	0xbdd3d912	-0.10344137
219	0xbe2a21d5	-0.16614468
220	0xbc500840	-0.012697279
221	0x3e30fb3c	0.17283338
222	0x3e16e08a	0.14734092
223	0x3e1b950c	0.15193576
224	0x3d7b53e1	0.06135929
225	0xbe00ffbe	-0.12597558
226	0x3e22ecff	0.1591072
227	0x3e39a802	0.18130496
228	0xbe0fac53	-0.1403058
229	0x3dbf8566	0.093516156
230	0x3cea0456	0.02856652
231	0xbc2680bd	-0.01016253
232	0xbe10be80	-0.1413517
233	0xbdb317e1	-0.08744789
234	0xbe2d97f2	-0.16952494
235	0xbe31f910	-0.17380166
236	0x3e016010	0.12634301
237	0xbd36c625	-0.04462256
238	0x3dfeff4c	0.12451038
239	0x3e045a1c	0.12924999
240	0x3cf3c36f	0.029756276
241	0x3df79609	0.12089164
242	0x3e36049a	0.17775193
243	0x3e1e956b	0.15486686
244	0xbe2aac5d	-0.16667314
245	0xbd1fe97c	-0.039041027
246	0x3d9773c4	0.073951274
247	0xbe2f7a23	-0.17136435
248	0x3de1d378	0.110266626
249	0x3d49c6e8	0.049261957
250	0x3e2f93c6	0.17146215
251	0x3d9c9daa	0.076472595
252	0x3e0cfd42	0.13768485
253	0xbd491d43	-0.04910017
254	0x3dfd965e	0.12382196
255	0x3d11685a	0.035499908

net.0.bias f4 [20]
0	0xbe2f7c70	-0.17137313
1	0xbbf94ca6	-0.007608014
2	0x3e32c186	0.17456636
3	0x3dcf8a1d	0.10133765
4	0xbd89a6c2	-0.0672126
5	0xbe0e9863	-0.13925318
6	0xbdaec49a	-0.085335925
7	0x3e3117de	0.17294261
8	0x3e31a60f	0.17348503
9	0xbcabc99a	-0.020970155
10	0xbdc01b3d	-0.09380195
11	0x3e1d015b	0.15332548
12	0xbd22e1d4	-0.039766148
13	0xbd542454	-0.051792458
14	0x3e3f2a0c	0.18668383
15	0xbe128236	-0.14307484
16	0xbd442907	-0.04789069
17	0xbcd81149	-0.02637543
18	0xbcc2f011	-0.023796113
19	0xbc8416a3	-0.016124075

net.3.weight f4 [40, 20, 3, 3]
0	0x3d285035	0.041092116
1	0xbcf3abfb	-0.029745093
2	0x3b8176aa	0.0039509134
3	0x3cdd6d91	0.027029784
4	0xbd8d00c9	-0.068849154
5	0x3d5300b7	0.051514354
6	0xbd4c047e	-0.04980897
7	0xbcd5bf3c	-0.026092164
8	0x3d2c9af2	0.042139955
9	0x3d604c6f	0.054760393
10	0x3c769d08	0.015052088
11	0x3d346faf	0.044051822
12	0x3d67d491	0.056599203
13	0x3cec3509	0.028833883
14	0x3c8e9f0e	0.017409828
15	0x3cfa160f	0.030528096
16	0xbbce525e	-0.00629644
17	0x3d1ee2bb	0.038790446
18	0xbc9ce4ee	-0.019152131
19	0x3ce52489	0.027971523
20	0x3d5070b8	0.050888747
21	0x3d9293b5	0.07157079
22	0xbd37d795	-0.04488333
23	0xbbbe18b6	-0.0058012856
24	0xbd4606bd	-0.04834627
25	0x3ce8181a	0.028331805
26	0xbd0c86bf	-0.03430819
27	0xbd2db1cc	-0.04240589
28	0xbcf145a8	-0.02945216
29	0xbc606740	-0.013696492
30	0x3cd53aaa	0.02602895
31	0xbd8f16f4	-0.069868
32	0xbd506f81	-0.05088759
33	0x3c3ea361	0.011635632
34	0x3c4c0286	0.0124517735
35	0xbcd57c6d	-0.026060307
36	0x3ca39059	0.019966291
37	0xbd9f6907	-0.07783704
38	0x3c0f3fe2	0.008743258
39	0x3c467223	0.012112173
40	0x3c3422b4	0.010994602
41	0xbd8fa233	-0.07013359
42	0xbcadf7f9	-0.021236407
43	0xbd194197	-0.037416067
44	0xbd3dceb6	-0.046339713
45	0xbd400afb	-0.04688547
46	0xbcdf84b0	-0.02728495
47	0xbd97cbd8	-0.07411927
48	0x3d9f5df7	0.07781594
49	0x3d95f190	0.07321465
50	0xbd51a8e0	-0.051186442
51	0xbcbfea36	-0.02342711
52	0x3d38769f	0.045035
53	0xbd2047a4	-0.03913082
54	0xbd501ab4	-0.050806716
55	0x3d8a6b8c	0.06758794
56	0x3d46807e	0.048462383
57	0x3d386f0b	0.045027774
58	0xbc7d8342	-0.015473189
59	0xbd6c565a	-0.05769954
60	0x3d7b5114	0.06135662
61	0xbc5d39bb	-0.013502534
62	0xbaa7d6b1	-0.0012805072
63	0xbc154373	-0.009110319
64	0x3cceea08	0.02525808
65	0xbd4d6bda	-0.050151683
66	0x3cbc859e	0.023012932
67	0x3d916563	0.07099416
68	0x3d8769f0	0.06612003
69	0xbd656c43	-0.05601145
70	0x3d8f2ea6	0.06991319
71	0x3cd6de08	0.02622892
72	0x3c09ecf8	0.008418314
73	0xbd8a5693	-0.06754794
74	0x3c15f808	0.009153374
75	0x3d3a79e3	0.045526396
76	0xbd35a6a7	-0.044348385
77	0xbd8e241b	-0.0694048
78	0x3d39cbc1	0.04536033
79	0x3b8325e0	0.004002318
80	0x3cc5f18f	0.024163036
81	0xbd1519bb	-0.03640149
82	0xbda74469	-0.08167345
83	0xbbf64141	-0.007515103
84	0x3b135947	0.0022483633
85	0xbc871d68	-0.016493514
86	0x3d4eeffc	0.050521836
87	0x3c64d5f8	0.01396703
88	0x3c5a8b45	0.0133388685
89	0x3d2fd4f3	0.042927694
90	0xbbc95c44	-0.006145032
91	0x3d1c2f07	0.038130786
92	0x3cd1dd26	0.025618147
93	0x3d571b7a	0.052516438
94	0x3d92045d	0.071297385
95	0x3d224d4f	0.03962451
96	0x3d996b1a	0.07491131
97	0x3c9c504c	0.019081257
98	0x3d88e041	0.06683398
99	0x3d2a00bb	0.041504603
100	0xbd68ff31	-0.056883994
101	0xbd7598e4	-0.05996026
102	0x3d183c58	0.037166923
103	0xbd470a14	-0.048593596
104	0x3d7c5030	0.06159991
105	0x3cfb571b	0.030681184
106	0xbb942d41	-0.0045219962
107	0xbd55723e	-0.052110903
108	0xbd1911f4	-0.037370637
109	0x3d115a9e	0.03548681
110	0xbd53778b	-0.051627677
111	0x3d12b3e5	0.035816092
112	0xbd6c473b	-0.05768512
113	0xbd069dc5	-0.032865304
114	0xbd77fa02	-0.06054116
115	0x3d7af0b3	0.061264705
116	0xbd9231ff	-0.07138442
117	0xbd7cf880	-0.061760426
118	0xbd993397	-0.07480543
119	0xbd9d3ed4	-0.07677999
120	0x3b34e7a6	0.0027603894
121	0xbc5985e5	-0.013276552
122	0xbcbf5e08	-0.023360267
123	0x3b937de6	0.0045010922
124	0xbcb6f58c	-0.022333883
125	0xbd1dd989	-0.038537536
126	0xbb181e44	-0.00232114
127	0x3d6beac9	0.057596955
128	0x3d8ed9d3	0.069751404
129	0x3c5d340b	0.013501178
130	0xbd7c2eab	-0.061567944
131	0xbca019ff	-0.019543646
132	0xbcc6b274	-0.024255015
133	0xbd35445e	-0.044254653
134	0x3d439c6b	0.047756594
135	0x3d82261e	0.063549265
136	0xbc73b71a	-0.014875198
137	0x3c0ada96	0.0084749665
138	0x3d1c75d3	0.038198303
139	0xbd078459	-0.0330852
140	0x3d84aeb4	0.064786345
141	0xbd5ba054	-0.053619698
142	0xbd76034a	-0.06006173
143	0xbcaedb04	-0.02134467
144	0xbc2d0ce2	-0.0105621535
145	0xbd49aed5	-0.049239
146	0xbc386adb	-0.011255945
147	0x3b91c87a	0.0044489475
148	0x3d909369	0.07059366
149	0xbd0314f5	-0.032002408
150	0xbd52208f	-0.05130058
151	0xbd9c3d31	-0.07628859
152	0xbd3beae6	-0.045878313
153	0x3d05eef1	0.032698575
154	0x3ccb031b	0.024781754
155	0xbbf6ec35	-0.0075354823
156	0xbd30dfec	-0.0431823
157	0xbd5f5ee1	-0.054533843
158	0xba9bba73	-0.0011881128
159	0xbc812d6e	-0.015768733
160	0xbbb6fcad	-0.0055843205
161	0xbd7a7d97	-0.061154928
162	0x3cf35ab0	0.02970633
163	0x3d2b1947	0.041772153
164	0x3d88caf3	0.066793345
165	0x3cb805aa	0.022463638
166	0x3d975ddf	0.07390951
167	0x3d72f666	0.059317015
168	0xbc1b015b	-0.009460772
169	0xbd0603d9	-0.032718513
170	0xbd7579bc	-0.059930548
171	0xbd1c49c9	-0.038156305
172	0x3d37b136	0.044846736
173	0xbd6ec6fd	-0.05829524
174	0x3d7094fb	0.05873583
175	0xbd106a3d	-0.035257567
176	0x3be178c6	0.0068808524
177	0xbd868b79	-0.06569571
178	0xbca3e3c6	-0.020006072
179	0x3d55df21	0.052214745
180	0xbd687a2c	-0.056757137
181	0x3c1e2f28	0.009654798
182	0x3d3ef4b4	0.046620086
183	0x3d28b40e	0.04118734
184	0xbd8b5280	-0.06802845
185	0x3bf7fd16	0.007568012
186	0xbd166377	-0.03671595
187	0xbc253a45	-0.010084693
188	0xbd8bb2e3	-0.06821229
189	0xbcfb5b2f	-0.030683128
190	0x3d857775	0.06516925
191	0xbd857f83	-0.065184616
192	0x3cd541ae	0.026032295
193	0xbd55b2dd	-0.05217253
194	0x3d881ba5	0.06645898
195	0x3d081465	0.033222575
196	0xbd83aaae	-0.06429039
197	0xbd32246f	-0.043491777
198	0xbd4ef16a	-0.0505232
199	0xbcf66a97	-0.030080123
200	0xbcccfb59	-0.025022196
201	0x3d8e8ec5	0.06960825
202	0xbd762f26	-0.060103558
203	0x3d90ac0c	0.07064065
204	0x3d8f4aa3	0.06996658
205	0xbbe1fbf9	-0.0068964926
206	0x3c99999b	0.018750003
207	0xbc2e9507	-0.010655648
208	0x3d186037	0.037201133
209	0x3d0a55e4	0.033773318
210	0x3d206ab0	0.039164245
211	0xbd03dfd3	-0.032195877
212	0x3c6ea25c	0.014565077
213	0x3cd96ae4	0.026540227
214	0xbd96f73b	-0.07371374
215	0x3d8ab593	0.06772914
216	0x3c39afb4	0.011333395
217	0xbc0b6ce6	-0.00850985
218	0x3d263d9e	0.040586106
219	0xbd5e1f48	-0.05422905
220	0x3c9ca894	0.019123353
221	0xbc9296c6	-0.01789416
222	0xbd29ffd2	-0.041503735
223	0xbd6f338d	-0.058398772
224	0x3d5159ae	0.051110916
225	0xbce8aa6d	-0.028401578
226	0xbd55d546	-0.052205347
227	0xbd9142d8	-0.070928276
228	0xbc691120	-0.014225274
229	0x3d01f972	0.03173203
230	0xbc00ade8	-0.0078539625
231	0x3d0cbab5	0.034357745
232	0xbd7ec67e	-0.062201016
233	0x3d0d1648	0.034445077
234	0xbd72c4d9	-0.05926976
235	0xbcc5e7ee	-0.024158444
236	0xbd8224c8	-0.06354672
237	0xbd670ae1	-0.05640686
238	0x3cb20e07	0.021735204
239	0xbc2f9832	-0.0107174385
240	0xbd8477d0	-0.06468165
241	0x3d4c3053	0.049850773
242	0xbd884672	-0.066540614
243	0x3d90c132	0.07068099
244	0x3c9e6858	0.019336864
245	0xbd90483a	-0.07045026
246	0x3cd662b7	0.026170118
247	0xbd8a83fc	-0.06763455
248	0x3b0a6430	0.0021116845
249	0x3d1b5b1f	0.037928697
250	0xbc3d43eb	-0.011551837
251	0x3d6fc319	0.05853567
252	0x3d524a89	0.051340614
253	0xbd62fa8c	-0.05541472
254	0xbcd644ab	-0.02615579
255	0xbd18fabe	-0.0373485

net.3.bias f4 [40]
0	0xbd187601	-0.037221912
1	0xbd96f3a6	-0.07370691
2	0xbc9ed366	-0.019387912
3	0x3cabe267	0.02098198
4	0x3d0a01fd	0.033693302
5	0xbd640256	-0.05566629
6	0x3d925487	0.071450286
7	0x3d8eb625	0.06968335
8	0xbd709426	-0.058735035
9	0x3d24b12e	0.040208034
10	0xbc3cd82b	-0.011526148
11	0xbcafa7bf	-0.021442292
12	0xbd62d2a2	-0.055376656
13	0x3d0c0b9d	0.034190763
14	0x3d824f75	0.063628115
15	0x3964780e	0.00021788498
16	0x3c39bb2f	0.011336132
17	0x3db1a917	0.086748295
18	0xbd4627ea	-0.04837791
19	0xbd38e39d	-0.045138944
20	0x3d0464c3	0.032322656
21	0xbbcacf85	-0.006189289
22	0x3d57c02b	0.0526735
23	0x3d09c3db	0.033634048
24	0xbd194c8c	-0.037426516
25	0x3c56e075	0.013115038
26	0xbd11e170	-0.035615385
27	0x3d2b812e	0.041871242
28	0x3c1916bd	0.0093438
29	0xbd803c41	-0.062614925
30	0x3d20b141	0.039231542
31	0xbbef2edb	-0.007299287
32	0xbd4e2f8d	-0.050338317
33	0x3d796dc4	0.060895696
34	0x3c0b58af	0.008505031
35	0xbbe9d886	-0.0071364073
36	0x3c0bd41b	0.008534457
37	0x3d62a8ab	0.055336636
38	0x3c50438e	0.012711419
39	0x3d8b6e96	0.06808202

net.6.weight f4 [20, 40, 3, 3]
0	0xbd45a17e	-0.048249714
1	0x3d14f434	0.036365703
2	0xbd4e30c8	-0.05033949
3	0x3d066eec	0.032820627
4	0x3ca86344	0.020555146
5	0xbc0b8494	-0.008515496
6	0xbcd43cd0	-0.025907904
7	0xbc3eff79	-0.011657589
8	0x3cc59d70	0.024122924
9	0xbccf48ee	-0.02530333
10	0x3d0f8c7e	0.035046093
11	0x3cdbe0c8	0.026840582
12	0x3d00d5d0	0.031453907
13	0xbb72f95f	-0.0037074906
14	0xbd437dff	-0.04772758
15	0xbcda34a2	-0.026636425
16	0xbd02a487	-0.031895187
17	0x3d4aa755	0.049475987
18	0x3cb17d3b	0.02166616
19	0xbd37e479	-0.044895623
20	0xbce2be80	-0.027678728
21	0x3c01b6bc	0.007917102
22	0x3a87cab6	0.0010360095
23	0xbd176a35	-0.03696652
24	0x3bc06673	0.005871588
25	0xbbe4ac1e	-0.006978526
26	0x3ccc07a2	0.024905983
27	0xbcba2ca4	-0.022726364
28	0x3ceb7ba0	0.028745472
29	0x3d4bed49	0.04978684
30	0xbd0dca7b	-0.03461693
31	0x3b285cc7	0.0025690065
32	0x3d495df2	0.04916186
33	0xbc634137	-0.013870529
34	0x3c54b2ff	0.012982129
35	0xbd3db70c	-0.046317145
36	0x3d2262c7	0.039644983
37	0xbb24aa32	-0.0025125858
38	0x3d4e4e5b	0.050367694
39	0xbc226c20	-0.009913474
40	0x3c813f30	0.0157772
41	0x3ba21f56	0.004947583
42	0xbb131ca7	-0.0022447498
43	0xbc16f60e	-0.009213937
44	0x3c086901	0.008325816
45	0xbce505ee	-0.027956929
46	0x3d362615	0.04446991
47	0xbc24316e	-0.010021551
48	0xbc13b76d	-0.0090159
49	0xba560911	-0.0008164803
50	0x3ce7c3a5	0.028291533
51	0xbceb8cd1	-0.02875367
52	0x3ce0b37f	0.02742934
53	0xbd4dc12c	-0.05023305
54	0x3d063780	0.032767773
55	0x3c024325	0.007950579
56	0x3ce14145	0.027496943
57	0xbbfe5a92	-0.0077622617
58	0xbc242c74	-0.010020364
59	0x3c37200c	0.011177074
60	0x3abc1086	0.0014348186
61	0xbc148e20	-0.009067088
62	0xbc806126	-0.015671324
63	0xbc798764	-0.015230034
64	0xbcb406af	-0.021975843
65	0x3c83ab58	0.016072914
66	0x3d2e487d	0.0425496
67	0x3cdf4470	0.027254313
68	0x3d43eb78	0.047831982
69	0xbcf74e6f	-0.030188767
70	0xba20d45b	-0.0006135159
71	0x3cf094ec	0.029367886
72	0x3d2145fc	0.039373383
73	0xbc980ecc	-0.018561743
74	0x3a9c3278	0.0011916896
75	0xbc568a8f	-0.013094558
76	0xbc4ffb26	-0.012694156
77	0xbcd30f4a	-0.025764126
78	0x3cb65397	0.022256656
79	0xbd4c01d5	-0.049806435
80	0x3ced6616	0.028979342
81	0xbcf3d604	-0.029765137
82	0x3d2674bf	0.04063868
83	0xbc9678fe	-0.01836824
84	0xbca3e531	-0.020006748
85	0xbd25b146	-0.040452264
86	0xbc61a025	-0.013771092
87	0x3bc8c59f	0.006127074
88	0x3d006aa7	0.03135171
89	0xbd0568ef	-0.032570776
90	0x38bfe2b7	9.149819e-05
91	0x3d41a04b	0.047272008
92	0xbd0314aa	-0.03200213
93	0xbd19347e	-0.037403576
94	0xbd2903dd	-0.04126345
95	0x3cf32aea	0.029683549
96	0xbcb8175b	-0.022472074
97	0x3d343823	0.04399885
98	0x3c80e6a5	0.01573498
99	0xbd1c3c36	-0.03814336
100	0x3d3f9896	0.046776377
101	0x3cc16499	0.023607539
102	0x3bd033c4	0.006353827
103	0xbd1ce0a0	-0.038300157
104	0x3cb98e86	0.022650968
105	0xbd12b8d1	-0.035820786
106	0xbd3f73b7	-0.046741214
107	0x3b023147	0.0019865797
108	0xbd10adef	-0.035322126
109	0xbc89305b	-0.01674669
110	0xbd055d6b	-0.032559793
111	0xbd183f6f	-0.03716987
112	0x3cb5fe86	0.022216093
113	0xbca13967	-0.019680692
114	0x3cb9e8b7	0.022693975
115	0xbd40e018	-0.047088712
116	0x3cf6f0ba	0.030144084
117	0xbc9c8110	-0.01910451
118	0x3c78e303	0.015190843
119	0xbd08c4ea	-0.033390917
120	0xbc4143f3	-0.0117959855
121	0xbc26fcc3	-0.010192099
122	0x3ce05f76	0.02738927
123	0x3d02f35f	0.031970378
124	0xbd1404af	-0.03613728
125	0x3d2cd07a	0.042191006
126	0xbd0d8959	-0.034554813
127	0x3c0601ea	0.008179167
128	0xbcd72de9	-0.026267009
129	0x3d0c2375	0.034213502
130	0xbd3cb1dd	-0.04606806
131	0xbc813cd5	-0.015776077
132	0xbc374148	-0.011184998
133	0xbcd54a5a	-0.02603643
134	0x3d4bffd8	0.04980454
135	0xbd1d70c8	-0.038437635
136	0x3cd34584	0.025789984
137	0x3d4f1c01	0.050563816
138	0xbba2f583	-0.004973115
139	0x3d00cb6b	0.031443994
140	0x3cfbb33d	0.030725116
141	0x3d2d60b9	0.04232857
142	0xbcfccbbd	-0.030858869
143	0xbcd880ae	-0.026428547
144	0x3d1b9c8c	0.03799109
145	0x3cd678f1	0.026180716
146	0xbd2ab113	-0.041672777
147	0xbb1dcb22	-0.0024077375
148	0x3ceecd1b	0.029150536
149	0x3b7d5365	0.0038654443
150	0xbd355a04	-0.0442753
151	0xba4e2752	-0.00078641356
152	0xbd28c04a	-0.041199006
153	0xbc8c8242	-0.017151956
154	0x3cc87e83	0.024474388
155	0x3d40adfb	0.04704092
156	0xbd4af399	-0.04954872
157	0xbd014bae	-0.031566314
158	0x3cafc405	0.021455774
159	0xbc992de3	-0.018698638
160	0xbd278cea	-0.04090587
161	0xbcd78d47	-0.026312483
162	0xbba61981	-0.0050689583
163	0x3d12c0d8	0.03582844
164	0xbcaee0ad	-0.021347368
165	0x3d06bf3e	0.032897227
166	0x3d0f681e	0.035011403
167	0xbd07f866	-0.033195876
168	0x3d1ce38b	0.03830294
169	0x3c972448	0.018449917
170	0x3d183e09	0.037168536
171	0xbd1a0d1f	-0.03761017
172	0xbd53d4f4	-0.05171676
173	0xbce85d23	-0.028364724
174	0xbc178bda	-0.009249652
175	0xbd38f9a7	-0.045159962
176	0x3cb52a5d	0.022114927
177	0x3cdb288a	0.026752729
178	0xbce4d1e7	-0.02793212
179	0xbc97b0e0	-0.018516958
180	0x3d04a054	0.032379463
181	0x3bdce591	0.0067412336
182	0x3cd148c0	0.025547385
183	0x3c72abbb	0.014811452
184	0x3c21c78e	0.009874238
185	0xbd1c8d6f	-0.03822082
186	0xb9893e19	-0.00026176943
187	0xbb5c22ac	-0.0033590002
188	0x3d21fa3a	0.039545275
189	0xbca06936	-0.019581418
190	0xbd2479d5	-0.04015525
191	0x3b8a584c	0.0042219516
192	0x3c0e8f06	0.008701092
193	0x3cf5f2ad	0.030022943
194	0x3d4f250b	0.050572436
195	0x3b6d7904	0.003623546
196	0x3cc97e2a	0.024596293
197	0x3cbfcd22	0.023413245
198	0xbce54b25	-0.027989933
199	0xbb9bdf1a	-0.0047568204
200	0xbcb17024	-0.021659918
201	0x3d397b7e	0.045283787
202	0xbd30c1cf	-0.04315358
203	0xbc9477b2	-0.018123481
204	0xbc585940	-0.013204873
205	0x3c5fd384	0.013661269
206	0xbd1c9e4a	-0.038236894
207	0x3cd6f06a	0.026237685
208	0xbd2b03ce	-0.041751675
209	0x3cdc1dee	0.02686974
210	0x3d4b8f2a	0.04969708
211	0xbc935157	-0.017983122
212	0xbc96a5a6	-0.018389534
213	0x3bad87ad	0.005295715
214	0xbcd989fb	-0.026555052
215	0xbd58260b	-0.052770656
216	0x3d17e8db	0.037087303
217	0x3d1d2476	0.03836485
218	0xbb69f680	-0.0035699904
219	0xbbe1718c	-0.006879991
220	0x3c0ffffd	0.00878906
221	0xbcbafd07	-0.022825731
222	0xbd155722	-0.03646005
223	0x3cb085ce	0.021548178
224	0xbd57b45e	-0.052662246
225	0xbc47f89c	-0.012205269
226	0x3b9c0eef	0.0047625224
227	0xbd227225	-0.039659638
228	0xbd44aa09	-0.04801372
229	0xbb1c8360	-0.0023882017
230	0xbce9be8d	-0.028533245
231	0x38b67782	8.700696e-05
232	0x3a14b40d	0.00056725816
233	0x3d3235d3	0.043508362
234	0x3d3f8922	0.04676164
235	0xbd4bb578	-0.04973361
236	0x3d0d32f1	0.03447241
237	0x3d2b6691	0.04184586
238	0x3d0aa952	0.033852883
239	0xbcabde9c	-0.020980172
240	0x3d461016	0.048355184
241	0xbba30204	-0.0049746055
242	0xbcae46d3	-0.021274006
243	0x3c80e88d	0.015735889
244	0xbd3c786a	-0.046013273
245	0x3cc884e1	0.024477424
246	0xbc6caa14	-0.014444847
247	0xbd040680	-0.03223276
248	0xbcd6e6db	-0.026233127
249	0xbd1716da	-0.036887027
250	0xbd29474a	-0.041327752
251	0xbd465002	-0.048416145
252	0xbd154540	-0.036442995
253	0x3d0560b7	0.032562938
254	0x3bf36e18	0.0074288957
255	0xbcba1a0c	-0.022717498

net.6.bias f4 [20]
0	0xbd405e62	-0.04696501
1	0xbd46e11c	-0.048554525
2	0x3d069da4	0.03286518
3	0x3ba38a42	0.004990847
4	0x3cc442dc	0.023957662
5	0x3d1e465e	0.038641326
6	0x3c6a869a	0.014314318
7	0x3d59ccc4	0.053173795
8	0x3cb83b6f	0.022489278
9	0xbca892c6	-0.0205778
10	0x3c999aeb	0.018750628
11	0xba907194	-0.0011020177
12	0xbd54a934	-0.051919177
13	0xbcbdacce	-0.023153689
14	0xbd418a69	-0.04725114
15	0xbcc808e3	-0.0244183
16	0xbcc30f1b	-0.023810914
17	0x3d0af2d0	0.03392297
18	0xbced870d	-0.028995061
19	0x3d617fdc	0.055053577

net.9.weight f4 [10, 20, 3, 3]
0	0x3d85bdb8	0.065303266
1	0x3d48e3a6	0.049045227
2	0x3ccfbcd1	0.02535859
3	0xbd95bcdf	-0.07311415
4	0xbd1f5dfd	-0.038907994
5	0xbd31af16	-0.043379866
6	0xbcda68b7	-0.02666126
7	0xbd1938ec	-0.0374078
8	0xbcf8b70b	-0.03036072
9	0x3d973452	0.07383026
10	0x3cc3347b	0.023828736
11	0xbd868ee8	-0.06570226
12	0xbd08c777	-0.03339335
13	0x3d96625f	0.073429815
14	0x3b29cbdf	0.002590887
15	0xbd348819	-0.044075105
16	0xbca4bfc3	-0.02011097
17	0x3d1f0673	0.03882451
18	0x3d736ee7	0.059431937
19	0x3d8c1c2b	0.0684131
20	0x3d619330	0.05507201
21	0xbda29a08	-0.079395354
22	0x3d85ce67	0.06533509
23	0x3b59a064	0.0033207173
24	0x3ce4d961	0.027935686
25	0xbc8140f1	-0.015778037
26	0x3d898db5	0.067164816
27	0x3d98708b	0.07443341
28	0xbc888bfe	-0.016668316
29	0xbd5f1f56	-0.054473244
30	0x3d506d46	0.05088546
31	0x3d2d34b3	0.042286586
32	0x3daa2257	0.08307331
33	0xbd9e0846	-0.07716422
34	0xbc995b61	-0.01872033
35	0xbcdd5804	-0.027019508
36	0x3d94968d	0.07255278
37	0x3ac2d350	0.0014864001
38	0xbda91a66	-0.08256988
39	0x395df894	0.00021168805
40	0x3ba3b700	0.0049961805
41	0xbc48b4b7	-0.012250117
42	0xbd270c32	-0.040783115
43	0x3d4d89f7	0.0501804
44	0xbd330c70	-0.043713033
45	0xbcd5917b	-0.026070347
46	0x3cbf8a7a	0.02338146
47	0x3d37166a	0.04469911
48	0xbd7c2c22	-0.061565526
49	0x3cf798ca	0.030224223
50	0x3b8d5271	0.0043128063
51	0xbd32052e	-0.04346197
52	0x3d5c9a22	0.05385793
53	0x3d02a615	0.03189667
54	0x3d692a5a	0.056925155
55	0xbce7b7ef	-0.028285949
56	0xbbc17bc8	-0.0059046485
57	0x3d73d353	0.059527706
58	0x3d2d0b72	0.042247243
59	0xbd8d31d8	-0.068942726
60	0x3c6d7874	0.01449405
61	0xbc65b27c	-0.014019605
62	0x3b93ecf9	0.0045143333
63	0xbc99e3cf	-0.018785385
64	0xbd77809a	-0.06042538
65	0x3d83d5b0	0.06437242
66	0xbd9ead09	-0.077478476
67	0xbda4314b	-0.080172144
68	0x3d37f647	0.044912603
69	0x3d71ed3c	0.059064135
70	0xbcf1cc29	-0.029516296
71	0xbd156a17	-0.03647813
72	0x3d6b44d9	0.057438705
73	0x3d795019	0.060867403
74	0x3d84498d	0.06459341
75	0xbcef886e	-0.02923986
76	0x3d9c3bed	0.076286174
77	0x3d216cc9	0.039410386
78	0x3d9805f1	0.07423008
79	0xbd6de53e	-0.05807995
80	0xbcd84699	-0.026400851
81	0xbc7c8e29	-0.015414753
82	0x3d2bef3a	0.04197619
83	0xbc8d98cd	-0.017284775
84	0x3cdffe8c	0.027343057
85	0x3bc60b68	0.00604384
86	0x3d661bfd	0.056179035
87	0x3b21243f	0.0024588255
88	0x3c97a4c5	0.018511185
89	0x3d1c013a	0.038087107
90	0xbd829dc3	-0.06377747
91	0xbd85b839	-0.06529278
92	0x3c0b5a94	0.008505482
93	0xbd60084a	-0.054695405
94	0x3d1e62bf	0.03866839
95	0x3d03d43f	0.032184836
96	0xbcec6c48	-0.028860226
97	0xbd7473e5	-0.05968084
98	0x3d94eed3	0.072721146
99	0x3d12fb24	0.035884038
100	0xbca7012d	-0.020386303
101	0x3ce50de0	0.027960718
102	0x3d07b09a	0.033127405
103	0xbc4211e4	-0.011845086
104	0xbd0422f8	-0.03225991
105	0x3d845026	0.064605996
106	0x3b782693	0.003786479
107	0xbd59ed16	-0.05320462
108	0xbd1de54c	-0.038548753
109	0xbda51bff	-0.080619805
110	0x3c530145	0.012878721
111	0xbcc36821	-0.023853363
112	0xbd6ae064	-0.0573429
113	0xbd14f3d9	-0.036365364
114	0xbd317f74	-0.04333444
115	0xbd2fc83e	-0.042915575
116	0x3d0d61d2	0.034517117
117	0xbd2f2c30	-0.04276675
118	0x3db30b9b	0.08742448
119	0xbc2ef903	-0.010679486
120	0xbd80e4a0	-0.06293607
121	0xbcee3f59	-0.02908294
122	0xbc32def7	-0.010917417
123	0x3ccd0ae0	0.0250296
124	0xbdad5e7b	-0.08465286
125	0x3d715fc3	0.058929216
126	0x3c918ab7	0.01776634
127	0x3ccaae16	0.024741214
128	0x3d855d50	0.065119386
129	0xbc8d309d	-0.017235095
130	0xbcf0e69e	-0.029406842
131	0x3cc6e73e	0.024280187
132	0x3d86d544	0.06583646
133	0x3d609513	0.05482967
134	0xbcd03767	-0.025417043
135	0x3ce467dd	0.027881557
136	0x3d2b00ec	0.041748926
137	0x3c0a6672	0.008447276
138	0xbdb19f5c	-0.086729735
139	0xbac0f808	-0.0014722357
140	0x3d311eff	0.04324245
141	0xbd233511	-0.03984553
142	0x3d8cdbe1	0.06877876
143	0x3d887b50	0.06664145
144	0x3d978f1f	0.07400345
145	0x3d8fee58	0.07027882
146	0xbd53a29b	-0.051668745
147	0x3d8a2c28	0.067467034
148	0xbd821025	-0.063507356
149	0xbc774aed	-0.015093547
150	0x3d187943	0.03722502
151	0x3d764af8	0.06013009
152	0xbd93f8e8	-0.072252095
153	0x3d14ace4	0.036297694
154	0xbcc46f97	-0.023978991
155	0x3d909294	0.070592076
156	0x3d2e9702	0.04262448
157	0x3c30ec00	0.010798454
158	0x3d27b25b	0.040941577
159	0x3c0480bb	0.008087332
160	0x3d22b2e7	0.039721396
161	0x3c80555c	0.015665703
162	0x3d664018	0.05621347
163	0x3d44a086	0.04800465
164	0xbd324cc4	-0.04353024
165	0x3cd44a42	0.025914315
166	0xbcd76215	-0.026291886
167	0xbd3bb186	-0.045823596
168	0x3da55d1a	0.08074398
169	0x3d87891b	0.06617948
170	0xbd3444ba	-0.044010855
171	0x3da33db6	0.07970755
172	0xbc324806	-0.01088143
173	0x3d2f11c9	0.04274157
174	0xb909e3e7	-0.00013150238
175	0x3c475a24	0.012167487
176	0xbd82d75b	-0.06388732
177	0xbd846258	-0.0646407
178	0x3cf4ece1	0.029898109
179	0x3d8420a7	0.064515404
180	0x3d975555	0.07389323
181	0xbcb3c767	-0.021945668
182	0xbd8a66a2	-0.06757857
183	0xbd764aec	-0.060130045
184	0x3d1d3f8b	0.038390677
185	0xbd483379	-0.048877213
186	0xbd95de42	-0.07317783
187	0x3cc0d50f	0.023539094
188	0xbd85b438	-0.065285146
189	0xbd2df676	-0.04247137
190	0xbd43ab09	-0.047770534
191	0x3d189ab0	0.037256896
192	0x3d0afd57	0.03393301
193	0xbb8b69a8	-0.0042545386
194	0x3bb918be	0.0056487015
195	0xbcbf0502	-0.023317818
196	0xbd3fcdca	-0.046827115
197	0x3cd6b541	0.026209475
198	0x3d857967	0.06517296
199	0xbd9230bf	-0.07138204
200	0xbd7f563f	-0.06233811
201	0x3d28c016	0.041198812
202	0x3d55be31	0.052183334
203	0xbda0030a	-0.0781308
204	0xbcfa9993	-0.030590808
205	0xbd1cbbeb	-0.03826515
206	0xbab790a1	-0.0014004895
207	0x3d2c090b	0.04200081
208	0xbd918a93	-0.07106509
209	0x3b4baa62	0.0031076898
210	0x3d5aaa7d	0.053385247
211	0xbd4fdcbc	-0.050747618
212	0xbd297fde	-0.04138171
213	0x3d820aed	0.0634974
214	0x3d6510a2	0.055924065
215	0x3c5e244e	0.01355846
216	0xbcac312d	-0.021019543
217	0xbccf2b5d	-0.025289232
218	0xbd4ee0a1	-0.05050719
219	0x3d8d2c9e	0.06893276
220	0xbd20cfec	-0.03926079
221	0xbd82ca33	-0.06386223
222	0xbd100e9c	-0.035170183
223	0x3ca6255b	0.020281484
224	0xbd773322	-0.0603515
225	0xbc5987f4	-0.013277043
226	0xbd249d17	-0.040188875
227	0xbd254883	-0.040352356
228	0xbd43b51f	-0.047780152
229	0xbcad3a27	-0.021145893
230	0xbd667678	-0.056265324
231	0xbbc093a0	-0.0058769733
232	0xba0fc66a	-0.0005484583
233	0x3cedd769	0.02903338
234	0xbcc090d0	-0.023506552
235	0xbca762a1	-0.020432772
236	0xbd1c9d8c	-0.038236186
237	0x3d6e71da	0.058214046
238	0xbc93753d	-0.01800024
239	0xbc4566fa	-0.012048477
240	0xbd1ba81e	-0.038002126
241	0xbc7943e1	-0.0152139375
242	0xbd629f01	-0.05532742
243	0x3c70e71b	0.014703537
244	0x3b6db638	0.003627194
245	0x3d4f4694	0.050604418
246	0x3d92c796	0.07166974
247	0x3cb1837a	0.021669138
248	0x3d4f072d	0.050543953
249	0xbc602f69	-0.013683178
250	0x3d9dd29f	0.077061884
251	0xbd65b3af	-0.056079563
252	0xbcac4251	-0.021027716
253	0xbd915191	-0.07095636
254	0xbd124719	-0.035712335
255	0xbcaa152c	-0.020762049

net.9.bias f4 [10]
0	0xbd613149	-0.054978643
1	0xba3e3162	-0.00072552834
2	0xbd5f5202	-0.054521568
3	0x3d034a51	0.032053296
4	0xbd861e03	-0.06548693
5	0x3c8e2eda	0.017356325
6	0xbb74f462	-0.0037377109
7	0xbca92c16	-0.020650905
8	0xbd8e0bcd	-0.069358446
9	0x3c6ba748	0.014383145

net.12.weight f4 [3, 10, 4, 4]
0	0xbd440234	-0.047853664
1	0x3c2b21fe	0.010445116
2	0x3d9cb61e	0.076519236
3	0x3d9357a5	0.07194451
4	0x3d953fb5	0.07287542
5	0xbce09be5	-0.027418086
6	0x3cf20930	0.029545397
7	0x3d35b19b	0.04435883
8	0xbbfaa6cc	-0.0076492783
9	0xbd2f6abc	-0.0428264
10	0xbbf53f65	-0.007484364
11	0x3d12619b	0.035737615
12	0x3b8e17b6	0.0043363227
13	0xbd5f2d9d	-0.05448686
14	0xbcf82d5f	-0.030295072
15	0x3d990190	0.07471001
16	0x3d72202d	0.059112716
17	0x3cff4679	0.031161534
18	0x3c9c9569	0.019114213
19	0xbd8c7e0d	-0.0685998
20	0x3d9f7565	0.07786063
21	0xbd7ac173	-0.061219644
22	0xbda03d33	-0.07824173
23	0xbcc826ee	-0.024432626
24	0xbd8f9b3d	-0.07012031
25	0xbd5365fe	-0.05161094
26	0x3b0e8bdb	0.002175084
27	0x3d07837e	0.033084385
28	0x3d6608f0	0.056160867
29	0xbc8d373f	-0.017238257
30	0x3d0daefb	0.034590703
31	0xbd4636b8	-0.048392028
32	0x3ce77c5a	0.028257538
33	0x3d3bf9af	0.045892414
34	0x3d8eced9	0.06973047
35	0x3cfcffa5	0.03088362
36	0xbae39b15	-0.0017364944
37	0x3d91d201	0.07120133
38	0xbcb62d0d	-0.022238279
39	0xbc8766e3	-0.016528552
40	0xbcc811e5	-0.024422595
41	0x3c5d8809	0.013521203
42	0x3d7174cf	0.058949288
43	0x3d6924c0	0.056919813
44	0x3d8e9745	0.06962446
45	0x3c7e67d8	0.015527688
46	0xbd52c3b7	-0.05145618
47	0xbd3ccc53	-0.046093296
48	0xbcf1e152	-0.029526386
49	0xbd9b8400	-0.075935364
50	0xbc71bfbc	-0.014755186
51	0x3c9e74a8	0.019342735
52	0x3b8b03cb	0.0042423955
53	0xbd60eb6b	-0.054912012
54	0xbdb83495	-0.08994404
55	0x3c2fb902	0.010725262
56	0xbc929eec	-0.017898045
57	0x3d1fb65a	0.038992263
58	0xbd9e865f	-0.07740473
59	0x3cc20d5a	0.023688007
60	0x3d7f7258	0.062364906
61	0xbd781e6e	-0.060575895
62	0xbc8eeee7	-0.017447902
63	0xbd822bb4	-0.06355992
64	0xbd8f0d53	-0.06984963
65	0x3b95f623	0.004576461
66	0x3cc46036	0.023971658
67	0xbd04208b	-0.032257598
68	0xbd906737	-0.07050937
69	0xbd85dfcc	-0.065368265
70	0xbd7fef6e	-0.062484197
71	0xbd367d1c	-0.044552907
72	0x3d8faf65	0.07015876
73	0xbcab5637	-0.020915134
74	0x3d8a9953	0.067675255
75	0x3c962767	0.018329335
76	0x3d2782c2	0.040896185
77	0x3d964a00	0.07338333
78	0x3c8178fa	0.015804756
79	0xbb043e65	-0.0020178792
80	0x3da4e1a1	0.08050848
81	0xbd8978a4	-0.067124635
82	0x3d0d9ce9	0.03457347
83	0x3cbfe385	0.02342392
84	0x3d29a72a	0.041419186
85	0x3c029697	0.007970474
86	0xbc97fbec	-0.018552743
87	0x3d2873bf	0.04112601
88	0xbc6d1f37	-0.014472774
89	0xb8a863a6	-8.029425e-05
90	0x3d9b5f32	0.075865164
91	0x3d72f8b9	0.05931923
92	0x3d31dfcd	0.043426324
93	0xbaf4c377	-0.0018673976
94	0x3c4c7f9e	0.012481598
95	0xbce5d132	-0.028053854
96	0x3d023856	0.031792007
97	0x3d0634f1	0.032765333
98	0x3b4d1ffe	0.0031299586
99	0xbbd02b42	-0.006352813
100	0xbd90ca60	-0.0706985
101	0x3d2eee8e	0.042707972
102	0x3c7bc58b	0.015366922
103	0x3b640ec3	0.0034798838
104	0x3d5f16bc	0.05446504
105	0x3d24e81f	0.04026043
106	0xbcde15e1	-0.027110042
107	0x3d4b08ed	0.04956906
108	0x3d9daab2	0.07698573
109	0x3d9840bd	0.07434223
110	0x3d5a25f0	0.053258836
111	0x3c24e012	0.010063188
112	0x3d95abf4	0.07308188
113	0x3d22d656	0.039755188
114	0x3d4abb9b	0.04949532
115	0x3c5e363c	0.013562735
116	0x3cf20b54	0.029546417
117	0xbd31cbb3	-0.043407153
118	0x3d7998e2	0.060936816
119	0xbda53114	-0.080660015
120	0xbcd37c87	-0.025816215
121	0x3ce30eae	0.02771696
122	0x3d6a9cfb	0.057278614
123	0x3d6f44a7	0.05841508
124	0x3d258e13	0.040418696
125	0x3da6116d	0.081087925
126	0x3d7a3654	0.061086968
127	0xbd4ca764	-0.049964324
128	0x3d04864c	0.032354638
129	0xbb464c84	-0.003025801
130	0xbd743fe5	-0.059631247
131	0x3d07effc	0.03318785
132	0x3d609320	0.05482781
133	0xbc4fb52f	-0.012677475
134	0xbd753716	-0.059866987
135	0x3cd0a55e	0.025469478
136	0x3d1f850f	0.038945254
137	0x3d159aca	0.03652457
138	0x3c631f42	0.013862433
139	0x3c207fac	0.009796064
140	0x3bc77323	0.0060867234
141	0xbd97de57	-0.07415455
142	0xbb493fbc	-0.0030708155
143	0xbd6e771f	-0.05821907
144	0xbda5875a	-0.08082457
145	0xbd9dd210	-0.07706082
146	0xbca06ddf	-0.01958364
147	0xbd60f454	-0.05492051
148	0x3d20ed54	0.039288834
149	0x3c582573	0.013192522
150	0xbac58305	-0.0015068954
151	0x3d49a803	0.049232494
152	0xbce39135	-0.027779201
153	0x3cd1a3ab	0.025590738
154	0xbd95c093	-0.07312121
155	0xbd9a7418	-0.075416744
156	0x3b5dc4eb	0.0033839296
157	0xbd26e232	-0.04074306
158	0x3da3a49b	0.079903804
159	0x3c4daefc	0.012553927
160	0x3bd358ef	0.0064498107
161	0x3d529cc9	0.051419053
162	0x3d80dc5a	0.06292029
163	0x3d3b37fe	0.045707695
164	0x3d23a74f	0.03995448
165	0xbb748cdf	-0.003731541
166	0x3d19da12	0.037561484
167	0x3d93ba5d	0.0721328
168	0xbd3d4ab1	-0.04621381
169	0xbd0787cd	-0.033088494
170	0xbd994c9d	-0.07485316
171	0x3d93a475	0.07209102
172	0x3cca6e3e	0.02471077
173	0xbdbbefa2	-0.09176566
174	0x3d1d810b	0.038453143
175	0xbd17f869	-0.037102137
176	0xbd95afc5	-0.07308916
177	0x3d2add00	0.04171467
178	0x3cf2a47c	0.029619448
179	0xbdac8cd2	-0.08425297
180	0xbd6269ef	-0.055276807
181	0x3cc1d16d	0.023659432
182	0xbd40384a	-0.04692868
183	0x3d2f39f8	0.042779893
184	0xbd19fb98	-0.037593454
185	0x3d875fdc	0.066100806
186	0xbc2d6766	-0.010583734
187	0xbc8ec292	-0.017426763
188	0x3d117139	0.03550837
189	0xbd32cebb	-0.043654185
190	0x3c63db88	0.013907321
191	0x3d76bc5c	0.060238227
192	0xbcbab848	-0.02279295
193	0x3d02937f	0.031878944
194	0x3d76b998	0.06023559
195	0xbbcf1ae2	-0.0063203434
196	0xbc3b8d90	-0.011447325
197	0x3cc45d5d	0.0239703
198	0x3d6a892d	0.057259727
199	0x3c757f85	0.014984016
200	0x3c683510	0.014172807
201	0xbdc68000	-0.09692383
202	0xbcaf2637	-0.021380527
203	0xbd67e093	-0.056610655
204	0xbb24d363	-0.002515041
205	0xbd835903	-0.06413462
206	0x3d335972	0.043786474
207	0x3d3e94b3	0.04652853
208	0x3d1b57d9	0.037925575
209	0x3d4e6357	0.050387707
210	0xbd5123fb	-0.051059704
211	0x3cb97791	0.022640022
212	0x3d87bc46	0.06627707
213	0x3ca059bd	0.01957404
214	0x3cf82ebd	0.030295724
215	0xbd9cc0bc	-0.07653949
216	0xbdaa0784	-0.08302215
217	0xbc85d4dd	-0.016336853
218	0xbd5b3f46	-0.05352714
219	0xbc4d3f57	-0.012527308
220	0xbcce9d81	-0.025221588
221	0xbb8d026e	-0.004303268
222	0xbd998ae8	-0.074971974
223	0xbdaad3c0	-0.08341169
224	0x3cf0d378	0.029397711
225	0x3d3ed6d6	0.046591602
226	0x3c76a440	0.015053809
227	0x3d1c4430	0.038150966
228	0x3cad58b2	0.021160457
229	0x3da12b4e	0.07869588
230	0x3d8107f6	0.063003466
231	0x3b100fe8	0.0021982137
232	0xbd9f814c	-0.07788333
233	0x3d84f973	0.06492891
234	0x3d6cfcb1	0.057858173
235	0x3d19af93	0.037520956
236	0x3d9b915a	0.07596083
237	0x3d547c4b	0.051876348
238	0xbd99c061	-0.075073965
239	0xbcc2b317	-0.023767037
240	0x3d007f6e	0.031371526
241	0xbd716f88	-0.058944255
242	0xbd649d4f	-0.055814084
243	0x3d918a5c	0.07106468
244	0xbd15715c	-0.03648506
245	0xbc88c69b	-0.016696265
246	0x3b5a4089	0.0033302626
247	0x3b5fb1e1	0.0034133124
248	0xbd9a888e	-0.07545577
249	0x3cdbbf73	0.026824689
250	0xbd2a5907	-0.04158881
251	0xbd4ee8ea	-0.050515093
252	0xbd38b6dd	-0.045096267
253	0xbd04a7fd	-0.03238677
254	0xbce7e812	-0.028308902
255	0xbd130e26	-0.035902165

net.12.bias f4 [3]
0	0x3bf2c25c	0.0074084233
1	0x3d949e1e	0.07256721
2	0xbd4f05be	-0.050542586
