models/model_good3.pkl (torch, 72905 bytes, 10 tensors)

net.0.weight f4 [20, 3, 3, 3]
0	0x3ca1e3fd	0.019762034
1	0x3dc9314f	0.09823858
2	0xbe105b0e	-0.14097235
3	0x3e47f2de	0.1952624
4	0xbd7b4486	-0.061344646
5	0xbe11f9a4	-0.14255387
6	0xbd70f245	-0.058824796
7	0x3d9e291d	0.077226855
8	0x3e2deca9	0.1698481
9	0xbc608986	-0.013704663
10	0xbca869b0	-0.020558208
11	0x3d3b33c7	0.045703676
12	0xbdf6406d	-0.12024007
13	0x3e2b240a	0.16712967
14	0xbc3d4ab4	-0.011553455
15	0x3d47a012	0.04873664
16	0x3e52b77e	0.20577809
17	0x3d4d2883	0.050087463
18	0x3b535165	0.003224456
19	0xbd42b235	-0.047533233
20	0xbe1a99f3	-0.1509779
21	0x3e2e4986	0.17020234
22	0xbdb3a0f6	-0.08770935
23	0x3cb4c1d8	0.022065088
24	0x3e03c252	0.12867096
25	0xbdf90a81	-0.121602066
26	0x3d057160	0.032578826
27	0x3ddcd95b	0.10783645
28	0xbdaec00c	-0.08532724
29	0x3e174629	0.14772858
30	0x3a54ad19	0.0008112952
31	0x3e27cdda	0.1638712
32	0xbd23fcd5	-0.04003604
33	0xbde4ab4f	-0.11165487
34	0x3e03adb8	0.12859237
35	0x3d6c778a	0.05773119
36	0x3ca39d14	0.019972362
37	0x3e046bac	0.12931699
38	0xbd9fa03b	-0.077942334
39	0xbb448706	-0.0029987707
40	0x3e09b67a	0.13448516
41	0x3dd024ad	0.10163245
42	0xbbac54e8	-0.005259145
43	0x3e195713	0.14974622
44	0x3cf71b89	0.030164497
45	0x3d80e4a2	0.06293608
46	0xbd356b05	-0.044291515
47	0xbe22b1e5	-0.15888174
48	0xbe44d221	-0.19220783
49	0xbdedea07	-0.11616903
50	0x3da46d33	0.080286406
51	0x3e23431b	0.15943567
52	0x3dad7552	0.08469643
53	0xbe1bda02	-0.15219882
54	0x3c896c87	0.016775383
55	0x3d8360ca	0.064149454
56	0x3db9df8a	0.0907584
57	0x3d6a00af	0.05712956
58	0xbdbe702f	-0.09298741
59	0xbe1d0827	-0.15335141
60	0xbd04b19a	-0.032395937
61	0xbdb021d2	-0.08600201
62	0xbcdfd0e7	-0.027321292
63	0x3e2ca0d5	0.16858228
64	0x3d52c80b	0.051460307
65	0x3d44a9d6	0.04801353
66	0x3ce84b72	0.028356288
67	0xbe055bd8	-0.13023317
68	0xbe404f88	-0.18780339
69	0xbdc7987e	-0.097458825
70	0x3e0b8bf3	0.13627605
71	0xbce28542	-0.027651433
72	0xbdf7b480	-0.120949745
73	0x3ddad48c	0.10685071
74	0x3e3f3dd9	0.18675937
75	0x3cd82fda	0.026390005
76	0x3e34fa9d	0.17673726
77	0x3cb290ed	0.021797622
78	0xbe0e3885	-0.13888748
79	0x3d1b194f	0.037865933
80	0xbe0ee6e3	-0.13955264
81	0xbe036eaf	-0.12835191
82	0xbcd130e4	-0.025536008
83	0x3db12440	0.08649492
84	0x3d482d4e	0.04887133
85	0xbb1716e1	-0.0023054408
86	0x3e21f0b7	0.15814482
87	0x3d2727eb	0.040809553
88	0xbda2e2a2	-0.07953383
89	0x3cd03a83	0.025418526
90	0xbd1b7d66	-0.037961386
91	0xbd3ca531	-0.046055976
92	0xbb8403f6	-0.0040287925
93	0x3bcad61c	0.0061900746
94	0xbe3292de	-0.17438838
95	0xbd8559aa	-0.06511243
96	0x3da0f886	0.07859902
97	0x3e26fd4f	0.16307567
98	0x3e372ea8	0.17888892
99	0x3e0551dc	0.13019508
100	0xbd986f70	-0.0744313
101	0x3dbeedb1	0.0932268
102	0xbe1228ac	-0.14273328
103	0x3e2cbf57	0.16869865
104	0x3e26272c	0.1622588
105	0x3e1e8922	0.15482
106	0x3e017c01	0.1264496
107	0x3d0125fa	0.031530358
108	0xbe06624f	-0.13123439
109	0xbe12730b	-0.14301698
110	0x3dba60b9	0.0910048
111	0xbe31f729	-0.1737944
112	0x3e3b831f	0.18311737
113	0xbde93d8c	-0.11388692
114	0xbe26abc0	-0.16276455
115	0x3c83d091	0.016090663
116	0x3e182132	0.14856413
117	0xbe2c09f6	-0.16800675
118	0x3c1b38ab	0.00947396
119	0x3e180576	0.14845833
120	0xbded066b	-0.1157349
121	0x3da74592	0.08167566
122	0xbdfb910c	-0.12283525
123	0xbdd15b7c	-0.102225274
124	0xbe02ba53	-0.1276639
125	0xbdc59497	-0.09647482
126	0xbe369e55	-0.17833836
127	0x3d80f7c3	0.06297257
128	0x3e2618cd	0.16220398
129	0xbd776a5d	-0.06040417
130	0xbd530c0e	-0.051525168
131	0xbd8f778a	-0.07005222
132	0xbe060282	-0.13086894
133	0xbdc52174	-0.09625521
134	0xbda8721d	-0.082248904
135	0x3d12709a	0.035751916
136	0x3d5022f1	0.050814573
137	0x3e1be6c1	0.15224744
138	0xbe062d57	-0.13103233
139	0x3df4c7f8	0.119522035
140	0x3de7faf4	0.113271624
141	0xbda74df4	-0.08169165
142	0xbe31454a	-0.17311588
143	0x3cd9530c	0.026528858
144	0xbe18a794	-0.14907676
145	0xbe11fa46	-0.14255628
146	0xbd71d3a2	-0.05903972
147	0xbdf92f7b	-0.12167259
148	0xbe3db062	-0.18524316
149	0x3cbfb558	0.023401901
150	0xbe1569c5	-0.14591129
151	0x3e102228	0.1407553
152	0xbde0375d	-0.1094806
153	0xbe02b28d	-0.12763424
154	0x3c341f23	0.010993752
155	0xbd785bdc	-0.06063448
156	0xbd5ceac6	-0.053934835
157	0xbd99c082	-0.07507421
158	0xbc91caae	-0.01779684
159	0x3d1cb9ae	0.038263015
160	0xbdc4f489	-0.09616954
161	0xbe19d81c	-0.15023845
162	0x3dc632b6	0.09677641
163	0x3da4886b	0.08033832
164	0xbab8463e	-0.001405902
165	0xbda70beb	-0.0815657
166	0xbe2a1bf9	-0.16612233
167	0xbc741522	-0.014897617
168	0xbe09c591	-0.13454272
169	0x3debab7c	0.115073174
170	0xbd8e5927	-0.06950598
171	0x3dcaf6d0	0.09910357
172	0x3bec0e36	0.0072038425
173	0xbc9d3611	-0.01919082
174	0xbd9ed2b0	-0.07755029
175	0x3dfa2b26	0.12215261
176	0x3c2d68e4	0.01058409
177	0x3dfeeca3	0.124474786
178	0xbd5b6fd2	-0.053573437
179	0x3e07ff0d	0.13280888
180	0x3e1e816a	0.15479055
181	0x3ddffb54	0.10936609
182	0xbdf7cb2f	-0.12099301
183	0x3d0ef7cc	0.034904286
184	0x3e40fee6	0.18847236
185	0x3e1d45d7	0.15358673
186	0x3e0ff392	0.14057758
187	0xbd9b8bea	-0.07595046
188	0x3af8b0c5	0.001897358
189	0xbde21225	-0.11038617
190	0xbd4ae537	-0.049535003
191	0xbdf48f98	-0.11941451
192	0x3dab85d7	0.08375137
193	0x3c1533e4	0.00910661
194	0x3d8b6317	0.06806009
195	0xbe18fa94	-0.14939338
196	0xbd3faa95	-0.04679354
197	0xbe0d60a5	-0.13806398
198	0xbd4bc620	-0.049749494
199	0x3c01f60d	0.007932198
200	0x3d29b087	0.041428115
201	0x3dffdc2a	0.12493165
202	0x3d26a837	0.040687766
203	0xbdbb6599	-0.091502376
204	0x3e0d04dc	0.13771385
205	0xbe445344	-0.19172388
206	0xbdfcb4b9	-0.123391576
207	0x3d84f217	0.064914875
208	0xbd678346	-0.056521676
209	0x3e1c62aa	0.15272012
210	0x3db8812f	0.09009015
211	0x3def6517	0.11689203
212	0xbde31a6a	-0.110890225
213	0x3e32ec9c	0.17473072
214	0xbcff2812	-0.031147037
215	0x3d6c7584	0.05772926
216	0x3d71c9ec	0.05903046
217	0xbe008b48	-0.12553132
218	0x3e12ea6b	0.14347236
219	0xbdaea35f	-0.08527254
220	0xbdd6159f	-0.10453343
221	0xbdd913a5	-0.1059945
222	0xbd2836ca	-0.041067876
223	0xbd12d71e	-0.035849683
224	0xbdc0b0e8	-0.09408742
225	0xbdf87cfd	-0.121332146
226	0x3ccd3b4a	0.025052685
227	0x3d205633	0.039144706
228	0xbda11ed6	-0.078672096
229	0x3e0b1c19	0.13584937
230	0xbdbe83c1	-0.09302474
231	0x3d6df6f4	0.05809684
232	0xbc29a5de	-0.010354487
233	0xbdb54dad	-0.08852706
234	0xbe1f77af	-0.15573
235	0xbd1f1246	-0.038835786
236	0xba733ada	-0.0009278484
237	0x3cb650b3	0.022255277
238	0x3e0c1a3c	0.13681883
239	0xbdc505f8	-0.09620279
240	0x3e15b9b8	0.14621627
241	0xbdb2eb56	-0.08736293
242	0xbdd7200c	-0.10504159
243	0xbd6e01a7	-0.058107045
244	0xbdb8bc08	-0.09020239
245	0x3da5f80d	0.081039526
246	0xbc97bcdb	-0.01852267
247	0x3c4925f3	0.012277114
248	0x3e2641bc	0.16236013
249	0x3d043471	0.032276575
250	0x3dcba081	0.09942723
251	0x3d2557a2	0.040366776
252	0xbda5da6b	-0.080983005
253	0x3ba19cd2	0.0049320245
254	0x3db6e5d6	0.089305565
255	0xbd893ed5	-0.067014374

net.0.bias f4 [20]
0	0x3e23c23f	0.15992068
1	0xbe0432f8	-0.12910068
2	0x3d1d5238	0.038408488
3	0x3e351373	0.176832
4	0x3b4e3a0d	0.0031467706
5	0xbdb3d724	-0.08781269
6	0xbdf6ab7b	-0.12044426
7	0xbdd90a99	-0.105977245
8	0x3c2b1f16	0.010444423
9	0x3c150e03	0.009097579
10	0x3db4ae46	0.088223025
11	0xbe025d33	-0.12730865
12	0x3d8c88e9	0.06862051
13	0x3d8b6243	0.06805851
14	0xbd24c75a	-0.04022918
15	0xbb77134d	-0.0037700713
16	0xbe298bcd	-0.16557236
17	0x3d8eabd8	0.0696637
18	0xbc9ea9c4	-0.01936806
19	0xbb04ce1f	-0.002026446

net.3.weight f4 [40, 20, 3, 3]
0	0x3d8acdab	0.06777509
1	0x3d69ab83	0.057048332
2	0xbd4eff4f	-0.05053645
3	0x3cea9e7f	0.02864003
4	0xbd8fd806	-0.07023625
5	0xbd34d401	-0.044147495
6	0x3d8eb4c6	0.069680735
7	0x3cba213f	0.022720931
8	0x3d43b320	0.04777825
9	0xbd285479	-0.041096184
10	0xbcf2c7bc	-0.029636256
11	0xbd658fbe	-0.056045286
12	0xbd95c81a	-0.07313557
13	0xbd4cefeb	-0.05003349
14	0x3d978d4d	0.07399998
15	0x3d928d99	0.07155914
16	0xbc253271	-0.010082827
17	0xbcb0babc	-0.021573417
18	0xbcc7b8f9	-0.024380194
19	0xbd340877	-0.043953385
20	0xbcb63d26	-0.022245955
21	0xbd83d18f	-0.064364545
22	0xbcbdfdaa	-0.023192246
23	0xbc6011e8	-0.013676144
24	0xbd211a41	-0.03933168
25	0x3cb841ae	0.022492256
26	0xbd82feb9	-0.06396241
27	0x3ac1135c	0.0014730501
28	0x3d3ced71	0.04612488
29	0xbd3c79f7	-0.046014752
30	0x3d20860d	0.03919034
31	0x3c9601f9	0.018311488
32	0xbcbfaaf9	-0.023396956
33	0xbd9303ef	-0.07178485
34	0xbd6870c3	-0.056748163
35	0x3c49ffc0	0.012329042
36	0xbca23e45	-0.019805083
37	0x3d2740ec	0.0408334
38	0xbcc43848	-0.023952618
39	0xbc5504c6	-0.013001626
40	0x3d06db06	0.03292372
41	0xbd6c761b	-0.05772982
42	0x3d96ad88	0.07357317
43	0x3caf5679	0.021403538
44	0xbd13bfef	-0.036071714
45	0xbd404349	-0.046939168
46	0xbd53eb08	-0.051737815
47	0x3da15569	0.07877619
48	0xbc8cc106	-0.017181884
49	0xbd874ec0	-0.06606817
50	0x3d84c8b4	0.064835936
51	0xbd5a964c	-0.05336599
52	0xbc9c4874	-0.019077517
53	0x3d12c9dc	0.03583704
54	0x3cd3a3ba	0.025834907
55	0x3c071eca	0.008247087
56	0x3cc288f6	0.023746949
57	0x3c8fcba2	0.017553154
58	0xbd339c82	-0.04385043
59	0xbbae9ffe	-0.005329131
60	0xbd4f14a0	-0.05055678
61	0x3c798f95	0.0152319865
62	0xba4d6642	-0.0007835367
63	0x3d0af232	0.03392238
64	0x3d8aaba4	0.06771019
65	0xbd4f68fc	-0.05063723
66	0x3d3b880d	0.045784045
67	0x3d672b97	0.056438055
68	0xbd27fadf	-0.041010734
69	0xbd6a884c	-0.05725889
70	0x3d67b3bc	0.056567892
71	0xbd848975	-0.0647153
72	0xbd649a4b	-0.055811208
73	0xbcc307cf	-0.023807434
74	0xbc668421	-0.014069588
75	0xbd2ccd76	-0.04218813
76	0x3d7ea6a4	0.06217064
77	0xbd5f6437	-0.05453893
78	0xbced61f0	-0.028977364
79	0x3cdbbbac	0.026822887
80	0xbd260cfc	-0.040539727
81	0xbce4e2ba	-0.027940143
82	0x3d9adcf9	0.075616784
83	0x3d8ffc8b	0.070305906
84	0xbd0381e8	-0.03210631
85	0xbc9ea33f	-0.019364951
86	0x3da63e53	0.08117356
87	0xbd2914fd	-0.04127978
88	0x3d5f15c3	0.054464113
89	0xbd49afc9	-0.049239907
90	0x3d50d8df	0.050988074
91	0xbd942696	-0.07233922
92	0xbd6c8267	-0.05774155
93	0xbd4f6a01	-0.050638203
94	0xbd851451	-0.06498016
95	0xbd859784	-0.0652304
96	0x3c9f584b	0.019451281
97	0xbd91f3e4	-0.071265966
98	0xbd201032	-0.039077945
99	0xbd39556b	-0.045247477
100	0xbd6f95c7	-0.05849245
101	0xbc93474c	-0.017978333
102	0xbd47139c	-0.048602685
103	0x3bd18f8a	0.006395285
104	0xbc573579	-0.0131353075
105	0xbd13a367	-0.036044504
106	0x3d833717	0.06406992
107	0xbcf4f750	-0.029903084
108	0xbcd5b5ba	-0.02608763
109	0x3cbf9a59	0.023389028
110	0x3c91f8ac	0.017818771
111	0xbcf2426b	-0.029572686
112	0xbc9257ce	-0.017864134
113	0xbd8eb93c	-0.069689244
114	0x3d7234ea	0.059132494
115	0x3d839d8f	0.06426536
116	0x3d078c02	0.033092506
117	0x3d12f42d	0.035877395
118	0x3c6d99e6	0.014502024
119	0xbd578168	-0.052613646
120	0xbd348bd4	-0.044078663
121	0x3d5ae0db	0.053437095
122	0x3d03819f	0.03210604
123	0xbd181866	-0.037132643
124	0xbcd8020b	-0.026368162
125	0xbb813c46	-0.0039439527
126	0xbc7685d0	-0.015046552
127	0xbd09645b	-0.033542972
128	0x3c9b6c95	0.018972674
129	0x3c30fd91	0.010802642
130	0x3d532bfa	0.05155561
131	0xbd6b7a7e	-0.057489865
132	0xbd36689c	-0.044533357
133	0x3cabdd5f	0.020979581
134	0x3b540bb1	0.0032355601
135	0xbd24408e	-0.040100627
136	0x3d9832ec	0.074315876
137	0x3cff4819	0.031162309
138	0x3d396905	0.04526617
139	0xbcdb7618	-0.02678971
140	0x3d64aef5	0.055830915
141	0x3d697fea	0.057006754
142	0x3d0f07be	0.034919493
143	0x3b9f4fc2	0.004861803
144	0xbc2460bb	-0.010032828
145	0xbb520116	-0.0032044104
146	0x3d4d6a6a	0.050150312
147	0xbd4e5ca6	-0.050381325
148	0xbbf5f6b2	-0.007506215
149	0x3d1f7724	0.03893198
150	0x3d61a32e	0.05508726
151	0xbcae9750	-0.021312386
152	0xbd4340bb	-0.047669154
153	0x3d4501e8	0.04809752
154	0x3cbbd1ec	0.022927247
155	0xbc152740	-0.009103596
156	0xbcf4b8d8	-0.029873297
157	0xbd3e29e4	-0.04642667
158	0xbd719359	-0.058978412
159	0x3d9350ee	0.071931705
160	0x3d91e13e	0.0712304
161	0xbd7fa91f	-0.062417146
162	0xbd3b702f	-0.045761283
163	0xbd47966f	-0.04872745
164	0x3d025c37	0.031826224
165	0x3d4f0a7e	0.050547116
166	0x3d22d764	0.039756194
167	0x3cc46db2	0.023978088
168	0x3d823ae7	0.06358891
169	0x3bc23dff	0.0059278007
170	0xbc3735e1	-0.011182279
171	0x3d8d6f56	0.06906001
172	0x3d88ca89	0.066792555
173	0xbcea9009	-0.028633134
174	0x3d4d517d	0.05012654
175	0x3d7c4ca0	0.061596513
176	0xbcd72530	-0.02626285
177	0x3c2b8877	0.0104695475
178	0x3d4edb87	0.050502326
179	0x3d910f91	0.07083047
180	0x3d9c5154	0.076326996
181	0xbd6ad4da	-0.057331897
182	0x3cd9e178	0.02659677
183	0xbc3b7f7f	-0.011443972
184	0xbd0aaf39	-0.03385851
185	0x3d095397	0.033526983
186	0xbc57aba5	-0.013163482
187	0x3c9d10a9	0.019172983
188	0x3d563cab	0.05230395
189	0x3d40ee8d	0.0471025
190	0x3d370f33	0.04469223
191	0xbcf56695	-0.029956141
192	0x3da8a5d5	0.08234755
193	0x3d981950	0.07426703
194	0x3d909268	0.07059175
195	0x3d8cd90c	0.06877336
196	0x3dacad3d	0.0843148
197	0x3cc397fc	0.023876183
198	0x3bafcfe6	0.0053653596
199	0x3d695d07	0.056973483
200	0x3c6e19e9	0.014532545
201	0xbd8e6d48	-0.069544375
202	0xbb4d9895	-0.0031371464
203	0xbd46325e	-0.048387878
204	0xbd6d0956	-0.05787023
205	0xbcae0fc4	-0.021247752
206	0xbce102b3	-0.027467107
207	0x3d87b8ef	0.0662707
208	0x3bf4ed22	0.0074745575
209	0x3a10fa27	0.00055304397
210	0xbb112afc	-0.0022150865
211	0xbcaf6c60	-0.021413982
212	0x3cb44771	0.022006722
213	0x3d2fb2ce	0.04289513
214	0xbd637600	-0.055532455
215	0xbc0577d1	-0.008146242
216	0xbd1701d5	-0.03686698
217	0x3c0e1e57	0.008674226
218	0x3c344ede	0.0110051315
219	0xbc969d91	-0.01838568
220	0x3d592f08	0.053023368
221	0xbc8a9f8a	-0.016921777
222	0xbd397b8c	-0.04528384
223	0xbca016f0	-0.019542187
224	0x3c317926	0.010832107
225	0xbcedcb07	-0.029027475
226	0x3bb092df	0.005388602
227	0x3d7fdd3f	0.062466856
228	0xbcd13dac	-0.025542103
229	0xbd8ac317	-0.06775492
230	0xbba6bb55	-0.0050882497
231	0x3d76552c	0.06013982
232	0xbc94a2c9	-0.018144028
233	0xbcf78b21	-0.030217709
234	0x3d459cad	0.04824512
235	0x3cd911fa	0.02649783
236	0xbc101be8	-0.008795716
237	0xbd76789a	-0.06017361
238	0x3c0b287a	0.008493537
239	0xbd45fcdb	-0.048336845
240	0xbd1e62c0	-0.038668394
241	0x3d0a289a	0.033730127
242	0xbcba3458	-0.022730038
243	0xbd03cd68	-0.032178313
244	0xbd805826	-0.06266813
245	0xbccfa84b	-0.025348803
246	0xbd720022	-0.059082158
247	0xbd8a6724	-0.06757954
248	0xbc1ca2d5	-0.009560307
249	0xbd782ea3	-0.06059135
250	0xbbcbaa2c	-0.0062153544
251	0x3d8664e7	0.06562214
252	0xbcd480f0	-0.025940388
253	0x3b9d18cd	0.0047942162
254	0xbd88f302	-0.06686975
255	0x3d8a983f	0.0676732

net.3.bias f4 [40]
0	0x3d0633e7	0.03276434
1	0x3bd9465a	0.006630701
2	0xbd4e95d5	-0.05043586
3	0xbd33c35f	-0.043887492
4	0xbc42d565	-0.0118916975
5	0xbd316ecd	-0.04331856
6	0x3d1567e7	0.036476042
7	0x3d2739cd	0.040826607
8	0x3d09aa7c	0.033609852
9	0x3d3ddfe9	0.046356115
10	0xbcd4a328	-0.025956705
11	0x3c136a64	0.0089975335
12	0xbcf2f949	-0.029659884
13	0xbc929bea	-0.017896611
14	0xbc87c70c	-0.016574405
15	0xbd1a01e0	-0.037599444
16	0x3da02fea	0.07821639
17	0xbd516415	-0.051120836
18	0x3da1441d	0.0787432
19	0x3d2efcbd	0.0427215
20	0x3d1128a4	0.03543915
21	0x3d86cfaf	0.06582581
22	0xbc780062	-0.01513681
23	0x3cffe3c3	0.031236535
24	0x3cc1ddf9	0.023665415
25	0xbd352b5d	-0.044230808
26	0xbd14350b	-0.0361834
27	0x3d9bbdfb	0.07604595
28	0xbd61a81d	-0.055091966
29	0xbd4ff6d9	-0.05077252
30	0x3d636ad5	0.055521805
31	0x3cc783d1	0.024354847
32	0x3d8502e6	0.064946935
33	0xbc8e6324	-0.017381258
34	0x3da0e65b	0.07856437
35	0xbd8c2ad1	-0.06844104
36	0x3ad1e9ea	0.0016015146
37	0xbcad8502	-0.021181587
38	0x3cf5572c	0.029948793
39	0xbb8a1e54	-0.004215041

net.6.weight f4 [20, 40, 3, 3]
0	0x3c92f213	0.017937696
1	0xbd444b95	-0.047923643
2	0x3cc3e380	0.023912191
3	0x3c37f56a	0.011227945
4	0xbc14bd26	-0.0090783
5	0x3d39dc7a	0.04537628
6	0xbc4c1c62	-0.012457939
7	0x3d23b6a3	0.039969098
8	0xbccad953	-0.024761831
9	0x3c1dec2f	0.00963883
10	0x3c190a22	0.009340795
11	0xbae3a32a	-0.0017367352
12	0x3cb00a0b	0.021489164
13	0xbbee0afc	-0.007264493
14	0x3d155cdc	0.03646551
15	0x3d5470f9	0.05186555
16	0xbd13058e	-0.03589397
17	0x3d627fb7	0.05529758
18	0xbd00a962	-0.031411536
19	0xbb0a7f05	-0.0021132838
20	0x3cae9f06	0.021316063
21	0xbb943d5a	-0.0045239152
22	0xbc90e2cb	-0.017686268
23	0x3c9a0dd3	0.01880542
24	0x3d051b1a	0.03249655
25	0xbbaa664f	-0.0052001844
26	0x3d3ec56a	0.046574987
27	0xbce103b7	-0.027467592
28	0x3caa96c4	0.020823844
29	0xbd4f1ce1	-0.05056465
30	0x3ce78736	0.028262716
31	0x3ac7cd12	0.0015243611
32	0x3d54b03a	0.051925875
33	0x3d337241	0.043810133
34	0xbcf3e2a9	-0.029771166
35	0x3d19f0de	0.037583224
36	0xbd2019af	-0.039086994
37	0xbd2025fd	-0.03909873
38	0x3d3c039a	0.045901872
39	0xbd2bc2d3	-0.041933846
40	0x3a67bfda	0.0008840539
41	0x3c8b6e11	0.017020257
42	0xbc7d1172	-0.015446054
43	0xbd143c37	-0.036190238
44	0x3ca8a40b	0.020586034
45	0x3cecb222	0.028893534
46	0xbc8492ee	-0.016183343
47	0xbc00ed9c	-0.0078691505
48	0x3ce22a93	0.027608192
49	0xbc060b31	-0.008181379
50	0x3d34281f	0.043983575
51	0x3b4a3670	0.0030855201
52	0xbc2de99f	-0.010614782
53	0x3d09df93	0.033660483
54	0x3c465ac5	0.012106602
55	0xbbe38d2c	-0.0069443192
56	0xbcad1c97	-0.021131797
57	0x3cd7dec1	0.026351335
58	0x3ca965bb	0.020678392
59	0xbc359555	-0.011082967
60	0xbc902e36	-0.01760016
61	0x3d2c5700	0.042075157
62	0xbd2b6f13	-0.041853976
63	0x3cb92362	0.02259988
64	0xbbadfde4	-0.005309807
65	0x3c973440	0.018457532
66	0x3c51da2d	0.012808365
67	0x3cdf2598	0.027239606
68	0xbd003a56	-0.031305633
69	0x3ccda69e	0.025103863
70	0xbc64b436	-0.013958981
71	0xbd33689c	-0.043800935
72	0x3d040c44	0.03223826
73	0xbce31be4	-0.02772326
74	0xbce30f17	-0.027717156
75	0xbd321cc0	-0.04348445
76	0x3d832a89	0.06404597
77	0xbd06765e	-0.032827727
78	0x3d58fc2f	0.052974876
79	0x3d492a7c	0.049112782
80	0x3d257005	0.040390033
81	0xbd22fa80	-0.039789677
82	0xbc9c0185	-0.019043693
83	0x3c43f0db	0.01195928
84	0x3cd6e4b5	0.026232103
85	0x3d53ed20	0.051739812
86	0x3cec521b	0.028847745
87	0xbcb23225	-0.021752426
88	0x3d6e2cd5	0.058148224
89	0x3bb47654	0.00550727
90	0xbcb7df45	-0.02244533
91	0x3d7d2972	0.061807103
92	0x3d09e2f9	0.033663724
93	0x3d082ad2	0.03324396
94	0x3d5cc4f9	0.053898785
95	0xbcdb4a9b	-0.026768973
96	0x3d15a168	0.036530882
97	0xbcffb78e	-0.031215455
98	0x3d271607	0.04079249
99	0x3cef428c	0.029206537
100	0x3ceef7fe	0.029170986
101	0xbbab9c4f	-0.0052371393
102	0xbca8f559	-0.020624803
103	0xbcc6f895	-0.024288455
104	0xbcd4c30f	-0.025971917
105	0xbd40ddce	-0.04708653
106	0xbc8fbcf7	-0.01754616
107	0x3d5a3d4b	0.05328111
108	0x3d281021	0.041031007
109	0x3c5a74a0	0.01333347
110	0xbc886abc	-0.016652457
111	0xbcff2c8f	-0.031149177
112	0xbb8f7f95	-0.0043792226
113	0xbc571b90	-0.01312913
114	0xbd240200	-0.04004097
115	0x3d4214a9	0.047382984
116	0x3d16caed	0.03681462
117	0xbc8c8e50	-0.017157704
118	0x3d37a0a9	0.04483095
119	0xbce7a25f	-0.028275667
120	0xbd42af49	-0.047530446
121	0x3cf4b554	0.02987162
122	0x3d32d213	0.043657374
123	0x3d1f1029	0.03883377
124	0xbd52e519	-0.051488016
125	0x3c0b9b7c	0.008520957
126	0xbcfc1ed3	-0.030776417
127	0x3c7b74a9	0.015347638
128	0x3d72fcc7	0.0593231
129	0x3ada4537	0.0016652708
130	0xbcffc47c	-0.03122162
131	0x3cb5d85f	0.0221979
132	0x3d5cdded	0.053922582
133	0x3cbf78a2	0.023372952
134	0x3cc7cb6e	0.024388995
135	0xbd19985f	-0.037498828
136	0x3cac966b	0.021067819
137	0xbb3619b6	-0.002778632
138	0xbd5d1132	-0.053971477
139	0x3c2a7acb	0.010405253
140	0xbcfb4c41	-0.03067601
141	0xbd315ee8	-0.0433034
142	0xbd34ac7f	-0.044109818
143	0x3d313119	0.043259714
144	0x3cc52d70	0.024069518
145	0xbb52fded	-0.0032194809
146	0x3d4c3351	0.049853627
147	0xbbf40f2e	-0.0074480986
148	0xbc80759c	-0.01568108
149	0x3c9a95e5	0.018870303
150	0x3d01cf49	0.031691823
151	0x3c38906e	0.0112649035
152	0x3d4fea1b	0.05076037
153	0xbd35607f	-0.04428148
154	0x3cfe5df6	0.031050663
155	0xbcc67e62	-0.024230186
156	0x3d01c5d8	0.03168282
157	0xbca4c76c	-0.020114623
158	0xbbf02591	-0.007328697
159	0x3c7240ad	0.014785928
160	0xbd201d29	-0.03909031
161	0xbcf00a62	-0.029301826
162	0xbc14aeb9	-0.00907486
163	0xbd1a9691	-0.037741248
164	0xbbea2ede	-0.0071467003
165	0x3d1075db	0.035268646
166	0xbc689564	-0.014195774
167	0xbcd21fbe	-0.025649901
168	0x3c60fe80	0.0137325525
169	0xbd34950b	-0.04408745
170	0xbcb5692c	-0.022144876
171	0x3d042d58	0.032269806
172	0x3cd218a0	0.025646508
173	0x3c2c5f3b	0.010520752
174	0xbb6c28ab	-0.0036034982
175	0xbd1177be	-0.035514586
176	0x3d0daef5	0.03459068
177	0xbce0af47	-0.027427329
178	0x3cdbdd09	0.026838796
179	0x3bf2ebe2	0.0074133733
180	0x3cae966a	0.021311957
181	0x3d571f79	0.05252025
182	0xbc82b14c	-0.015953682
183	0xbb1315de	-0.0022443454
184	0xbcb17265	-0.021660993
185	0x3d00c828	0.031440884
186	0x3d33b232	0.043871112
187	0xbbb14cda	-0.0054107727
188	0x3cbdb420	0.02315718
189	0xbcca39f1	-0.024685832
190	0xbd0af457	-0.033924427
191	0x3cc20796	0.023685258
192	0x3d19071a	0.03736029
193	0xbcd94832	-0.026523683
194	0xbbb5c885	-0.0055475854
195	0xbcd325b7	-0.02577482
196	0xbcd60840	-0.02612698
197	0xbd21d541	-0.039510015
198	0xb9f442cd	-0.00046589077
199	0xbd070d24	-0.032971516
200	0xbc0a266e	-0.008432014
201	0x3d304a7d	0.043039788
202	0xbcb35c0f	-0.021894483
203	0x3d0dd087	0.034622695
204	0x3cc0d8be	0.02354085
205	0x3c30f590	0.010800734
206	0x3cc98924	0.024601527
207	0xbd128aed	-0.03577702
208	0xbd1fef15	-0.039046366
209	0xbc2e5552	-0.010640459
210	0x3a7d4245	0.0009661059
211	0xbcc4d9c0	-0.024029613
212	0xbbeeb40d	-0.0072846473
213	0xbd400ebd	-0.046889056
214	0xbcd0e997	-0.02550201
215	0xbc3a5346	-0.011372393
216	0x3cdb967a	0.026805151
217	0xbd4a8457	-0.049442615
218	0x3d113bf8	0.03545758
219	0xbcce6c68	-0.025198177
220	0xbca16a26	-0.019703936
221	0x3d415bc1	0.047206644
222	0x3d3e490d	0.046456385
223	0x3d217da2	0.039426453
224	0x3d0a0d07	0.03370383
225	0xbd048a8e	-0.0323587
226	0x3c551c57	0.013007245
227	0xbc341b12	-0.010992782
228	0xbb31ab53	-0.0027110174
229	0xb9bc4f39	-0.0003591718
230	0x3d17c38d	0.037051726
231	0xbd486971	-0.04892868
232	0xbd173849	-0.036918912
233	0xbd33ebc1	-0.043926004
234	0x3b78d408	0.0037968177
235	0xbcf80c7b	-0.030279389
236	0xbd452938	-0.048135012
237	0x3c14fd07	0.00909353
238	0xbaf2bda9	-0.0018519658
239	0x3d3ebe55	0.046568234
240	0xbd3d4761	-0.04621065
241	0x3cb1bb36	0.021695714
242	0x3d125323	0.035723817
243	0xbcebc935	-0.028782466
244	0xbcf89925	-0.030346463
245	0x3c9f35ea	0.019434888
246	0x3ce943f8	0.028474793
247	0x3d29a3da	0.041416027
248	0x3d5251e7	0.05134764
249	0x3d4cbce3	0.049984824
250	0x3d509566	0.050923727
251	0x3b8f5a3c	0.0043747704
252	0x3cbf1cce	0.023329165
253	0x3d4563bf	0.04819083
254	0xbd179326	-0.037005566
255	0x3d37a1ea	0.044832148

net.6.bias f4 [20]
0	0xbd13fc9a	-0.03612957
1	0xbb5a155f	-0.0033276898
2	0x3cf2d729	0.029643612
3	0xbc51a5f1	-0.012795911
4	0x3d4ca117	0.049958315
5	0xbd2dbb33	-0.042414855
6	0x3ce2aea7	0.027671171
7	0x3c90a0db	0.017654827
8	0xbd093369	-0.033496294
9	0xbb7a3700	-0.0038179755
10	0xbc924974	-0.01785729
11	0xbc6ebe44	-0.01457173
12	0xbc7f60f4	-0.01558708
13	0x3bb25d2a	0.005443235
14	0xbd29f084	-0.04148914
15	0xbc500b67	-0.012698031
16	0xbcdf132d	-0.027230823
17	0xbb1c177c	-0.0023817709
18	0x3d4db429	0.050220642
19	0x3af12651	0.001839826

net.9.weight f4 [10, 20, 3, 3]
0	0x3d1b6405	0.037937183
1	0xbcb6157d	-0.022227043
2	0x3d665d57	0.05624136
3	0x3b5b0644	0.0033420483
4	0x3d93e26e	0.072209224
5	0xbd0d0313	-0.03442676
6	0xbcb1d6df	-0.021708904
7	0x3c74d94d	0.014944387
8	0xbd41ac98	-0.04728374
9	0x3d518d4e	0.05116015
10	0x3d872c68	0.06600267
11	0xbd250a64	-0.040293112
12	0x3d3be656	0.045873962
13	0x3ce4fb91	0.027951987
14	0x3d6f3499	0.05839977
15	0x3d3dec91	0.046368185
16	0x3d13098a	0.03589777
17	0xbd3380f3	-0.043824147
18	0x3d1d24f2	0.038365312
19	0x3c637a63	0.01388416
20	0x3c5ffb5b	0.013670768
21	0x3d94675c	0.07246277
22	0xbca1ac50	-0.019735485
23	0x3d8ed00b	0.06973275
24	0x3cf1042e	0.029420938
25	0xbcb22179	-0.021744477
26	0xbd517ada	-0.05114255
27	0xbc830612	-0.015994105
28	0x3d5c5f54	0.05380185
29	0x3d99507a	0.07486053
30	0x3ce32a64	0.027730174
31	0xbd7289ba	-0.059213378
32	0x3ccc3496	0.024927419
33	0x3dad2cdd	0.084558226
34	0x3c8516e5	0.016246269
35	0xbd0391ac	-0.032121345
36	0x3abffb0c	0.0014646961
37	0x3d905fe0	0.07049537
38	0x3d2b2ddd	0.041791786
39	0xbcc3871f	-0.023868142
40	0x3cf25407	0.029581083
41	0x3d049764	0.03237094
42	0x3cf8a4a0	0.030351937
43	0x3ccee2e2	0.02525467
44	0x3d3f0473	0.046635102
45	0xbd1c2ffd	-0.038131703
46	0x3d9b137b	0.07572075
47	0x3b0559f7	0.0020347813
48	0x3c8b33ac	0.016992413
49	0x3ca494db	0.020090511
50	0xbd7b970e	-0.061423354
51	0x3d9cc17f	0.07654094
52	0x3aa34541	0.0012456552
53	0x3d32f896	0.0436941
54	0xbd2d5f75	-0.042327363
55	0xbd6e400b	-0.058166545
56	0xbd59c59b	-0.053166967
57	0x3d3430b2	0.043991752
58	0xbd122011	-0.035675112
59	0xbcd82c22	-0.026388232
60	0xbd1cdc05	-0.038295764
61	0x3d62c974	0.055367902
62	0xbd6ba27d	-0.057528008
63	0xbd1817c9	-0.03713206
64	0x3d5c8a71	0.053842966
65	0x3d9f3ac7	0.07774883
66	0x3bcf08ea	0.0063182013
67	0xbd938743	-0.072035335
68	0xbc392873	-0.011301148
69	0xbc86d9cb	-0.016461274
70	0xbc278234	-0.010223914
71	0xbc90f81f	-0.017696438
72	0xbc82d352	-0.015969906
73	0x3db39e89	0.087704726
74	0x3cc0a74b	0.023517272
75	0xbd11c060	-0.035583854
76	0xbb011b10	-0.0019699968
77	0x3d2f4150	0.042786896
78	0x3c89b831	0.016811462
79	0x3da0ba58	0.07848042
80	0x3da1a9a3	0.07893684
81	0xbd577f45	-0.052611608
82	0xbd8306a5	-0.06397752
83	0xbd5a1238	-0.05324003
84	0xbd40874d	-0.047004033
85	0xbc7d1cbb	-0.015448744
86	0xbb2bc31d	-0.0026208826
87	0xbd85fe8e	-0.06542693
88	0xbc7fe308	-0.015618093
89	0xbd9a0321	-0.07520128
90	0xbd884459	-0.06653661
91	0xbcc62b98	-0.024190709
92	0x3d2c9018	0.042129606
93	0xbc824d5a	-0.015906025
94	0xbdaf537f	-0.085608475
95	0xbd23fd1c	-0.040036306
96	0x3ced1fdd	0.028945858
97	0xbd51e983	-0.051248085
98	0xbd03257a	-0.032018162
99	0x3bb6f748	0.0055836774
100	0xbd07c81b	-0.03314982
101	0xbcbca5de	-0.02302831
102	0xbc23e36c	-0.010002952
103	0x3db08bd5	0.08620421
104	0xbbea4ccf	-0.0071502696
105	0x3d711eba	0.058867194
106	0x3d32cf69	0.043654833
107	0x3d4d7711	0.05016238
108	0xbd008f4c	-0.03138666
109	0x3d6b4a8d	0.057444144
110	0xbd8f6d9c	-0.07003328
111	0x3d47296a	0.04862348
112	0xbd8e93ba	-0.0696177
113	0xbd4a796a	-0.049432196
114	0xbd0827be	-0.033241026
115	0xbb96379c	-0.004584266
116	0x3d1406b1	0.036139194
117	0xbd15a8c8	-0.036537915
118	0x3cac333c	0.021020524
119	0xbca90a99	-0.020634936
120	0x3d9d56c1	0.076825626
121	0x3d0a91c4	0.03383042
122	0xbcc49539	-0.023996936
123	0x3d51ac2d	0.05118959
124	0xbcecafa3	-0.028892344
125	0x3bd1270d	0.006382829
126	0xbd17134c	-0.036883637
127	0x3db657a7	0.08903437
128	0x3cc1f02b	0.023674091
129	0x3d97c084	0.07409766
130	0x3da28016	0.07934587
131	0xbcb5c7cb	-0.022189995
132	0x3d71734d	0.05894785
133	0x3d739fdf	0.059478637
134	0xbd4bac16	-0.04972466
135	0x3d7fb0fc	0.062424645
136	0x3c69a85a	0.01426133
137	0xbd1570f8	-0.03648469
138	0x3d57552c	0.05257146
139	0xba2ae0f0	-0.00065185037
140	0x3d209121	0.039200906
141	0xbd3b856c	-0.045781538
142	0xbc8c0228	-0.017090872
143	0xbd690ee5	-0.05689897
144	0x3c1c432f	0.009537502
145	0x3cf95385	0.030435333
146	0x3cf3b3f4	0.029748894
147	0x3c83f7e1	0.016109409
148	0x3c4c2617	0.012460253
149	0x3c181040	0.009281218
150	0xbd29bf18	-0.041442007
151	0x3d6ddff7	0.058074918
152	0xbc522083	-0.012825134
153	0xbd65ff6f	-0.056151804
154	0x3ca77a0e	0.020443942
155	0xbd5f89ca	-0.054574765
156	0x3b7a5fa7	0.0038203986
157	0xbd0be215	-0.034151156
158	0xbd7a69f7	-0.061136212
159	0xba7566f6	-0.00093613507
160	0x3d1f3f35	0.03887864
161	0xbd33b582	-0.04387427
162	0x3d832103	0.06402781
163	0x3d81660f	0.06318294
164	0x3cdf92c3	0.027291661
165	0x3d3e79b6	0.04650279
166	0x3d743de6	0.059629343
167	0x3cd73f6d	0.026275361
168	0x3cb2a75d	0.02180832
169	0x3dac7ab1	0.08421839
170	0x3cb81de8	0.022475198
171	0x3d429842	0.047508486
172	0xbd127309	-0.035754237
173	0x3d1b1008	0.037857085
174	0xbd8b559f	-0.0680344
175	0x3cc57be5	0.02410693
176	0xba6981ea	-0.00089076033
177	0x3d7426bb	0.05960725
178	0xbd31f3f1	-0.04344553
179	0x3be7bfd2	0.0070724273
180	0x3d28629f	0.041109677
181	0xbc508d72	-0.012729036
182	0x3d1dec35	0.038555343
183	0x3daa1a2a	0.08305772
184	0x3c1e69bf	0.0096687665
185	0xbd0e801f	-0.034790155
186	0x3c677584	0.014127139
187	0xbd4d0835	-0.050056655
188	0x3daac8a3	0.0833905
189	0x3cc329bb	0.02382361
190	0x3c89a18e	0.016800668
191	0x3caf4933	0.021397209
192	0xbc5e3d66	-0.013564443
193	0xbc1f6ceb	-0.009730558
194	0x3cbb849b	0.02289038
195	0xbc70842b	-0.014679949
196	0x3d1e59a7	0.038659718
197	0x3c82db00	0.015973568
198	0xbd547400	-0.05186844
199	0x3d4199b0	0.04726571
200	0x3cc13b1c	0.023587756
201	0xbd019309	-0.031634364
202	0xbd49e707	-0.04929259
203	0xbcbf6b84	-0.023366697
204	0xbd069350	-0.032855332
205	0x3da44b17	0.08022135
206	0x3cb4255f	0.021990476
207	0xbc0669a4	-0.008203898
208	0x3c9b0040	0.018921018
209	0xbc557406	-0.01302815
210	0xbc979bf6	-0.018506985
211	0x3c740bba	0.014895374
212	0xbc68283c	-0.014169749
213	0xbd6d4b12	-0.05793292
214	0x3d9d5212	0.07681669
215	0x3d2bf9e1	0.04198635
216	0x3d1606b6	0.036627494
217	0x3d82deeb	0.063901745
218	0x3b511432	0.0031902906
219	0xbd73cf17	-0.05952367
220	0x3d6d07d2	0.057868786
221	0x3d1e9e2b	0.03872506
222	0x3d7411dd	0.05958735
223	0x3d3919ca	0.04519061
224	0x3d972ab5	0.073811926
225	0x3d0b62bc	0.034029707
226	0x3c280587	0.010255224
227	0x3cdcf5b0	0.026972622
228	0x3bf0f162	0.007352994
229	0x3d8a8762	0.067641035
230	0xbd55afe0	-0.05216968
231	0xbd97bb8e	-0.0740882
232	0x3cf847be	0.030307647
233	0xbd2a98f2	-0.041649766
234	0x3d995b8c	0.07488164
235	0xbcdd154c	-0.026987694
236	0xbcaf145b	-0.021372011
237	0xbca2edee	-0.019888844
238	0x3d0b5c3e	0.034023516
239	0x3d3a25b4	0.045446113
240	0xbbf393ea	-0.007433404
241	0xbd11433a	-0.035464503
242	0xbd750b0e	-0.059824996
243	0x3d1e2f4d	0.03861933
244	0x3cc9ecca	0.024649043
245	0xbc3d5b8e	-0.011557473
246	0xbbf06f01	-0.0073374514
247	0xbcd5688c	-0.026050828
248	0x3d737240	0.05943513
249	0xbd9181ba	-0.071048215
250	0x3d6f4f28	0.0584251
251	0xbd7d6bb6	-0.0618703
252	0x3cec86dc	0.0288729
253	0x3d4bc7f4	0.049751237
254	0x3b1d6340	0.0024015456
255	0x3d1f2e2e	0.0388624

net.9.bias f4 [10]
0	0x3d191ed3	0.037382912
1	0xbcc395d4	-0.023875155
2	0xbc9f8b20	-0.01947552
3	0x3cc3e0bc	0.023910873
4	0x3ceb71fd	0.028740877
5	0x3d98362f	0.0743221
6	0xbc457687	-0.012052185
7	0x3cdacdd3	0.026709473
8	0x3d8a4bfc	0.06752774
9	0xbb3bcece	-0.00286572

net.12.weight f4 [3, 10, 4, 4]
0	0x3c54dfca	0.012992809
1	0x3d2f9245	0.042864103
2	0xbd9e0c1e	-0.07717155
3	0xbd91f59f	-0.07126927
4	0xbbe7a3a7	-0.0070690694
5	0xbdaac775	-0.08338825
6	0xbd55f4b6	-0.052235328
7	0xbcf1ab9f	-0.02950078
8	0x3d741bc1	0.05959678
9	0xbc671d6e	-0.014106138
10	0x3d4c05ed	0.04981034
11	0xbc1b14f7	-0.009465448
12	0x3ce31d84	0.027724035
13	0x3a9aad6f	0.0011800955
14	0xbda14fdb	-0.07876559
15	0xbc963ec0	-0.018340468
16	0x3cd4bad1	0.025967987
17	0x3d11f251	0.03563148
18	0xb9c3837d	-0.00037291265
19	0xbd313735	-0.04326554
20	0x3c80fa58	0.015744373
21	0x3cb282a7	0.021790816
22	0xbd9a0c35	-0.075218596
23	0xbd57aec6	-0.05265691
24	0x3d2dcbdd	0.042430747
25	0x3a3896b7	0.0007041501
26	0xbc6e30fa	-0.014538044
27	0xbb568782	-0.0032734578
28	0x3cccd86f	0.025005547
29	0x3d3a3b05	0.04546644
30	0x3bbd9b4a	0.005786334
31	0xbc565944	-0.013082806
32	0x3d6681dc	0.056276187
33	0xbd727b3a	-0.05919955
34	0xbd4e804c	-0.050415322
35	0xbce24f70	-0.02762577
36	0x3c8ac8e1	0.01694149
37	0xbd1c45fb	-0.038152676
38	0xbd8225ef	-0.063548915
39	0xbd73a80a	-0.059486426
40	0xbc713e4e	-0.014724327
41	0x3d486bcb	0.048930924
42	0x3b39ac37	0.0028331408
43	0xbc958bb4	-0.018255092
44	0xbc97cf10	-0.018531352
45	0xbd7c8779	-0.061652634
46	0x3d74d7ef	0.059776243
47	0xbd18e3a1	-0.03732646
48	0xbd57f9f9	-0.052728627
49	0xbcd77a7c	-0.026303522
50	0xbd78fb1b	-0.060786348
51	0x3cb22a8c	0.021748804
52	0x3d3ded60	0.046368957
53	0xbb8db874	-0.004324967
54	0x3d736cd5	0.059429962
55	0x3d3ee842	0.046608217
56	0x3d5aa34f	0.0533784
57	0xbd4dedf1	-0.050275747
58	0x3d2fbbef	0.042903837
59	0xbd1e8f2f	-0.03871077
60	0x3d592532	0.053013988
61	0xbd341de0	-0.043973804
62	0xbd9de703	-0.077100776
63	0xbcabab82	-0.020955805
64	0x3bc17ef3	0.005905026
65	0x3da61f26	0.0811141
66	0x3d7d5871	0.061851922
67	0xbc4b7b5c	-0.012419548
68	0x3d2b9d5d	0.04189812
69	0x3da3d4f0	0.07999599
70	0x3baa4599	0.005196285
71	0x3d294493	0.041325163
72	0x3bd03de3	0.0063550337
73	0xbd7232f3	-0.05913062
74	0x3c8b1afd	0.016980642
75	0x3d8f0eb6	0.06985228
76	0x3d75d2a0	0.06001532
77	0x3d91d9af	0.07121598
78	0xbcb721dd	-0.022355014
79	0xbd508083	-0.05090381
80	0xbc950204	-0.018189438
81	0x3d3c864c	0.046026513
82	0xbd542e2d	-0.05180185
83	0x3d41346c	0.047169134
84	0x3c6aa011	0.014320389
85	0x3d0c9871	0.034325067
86	0xbbefbced	-0.007316223
87	0xbc3ad3dd	-0.011403051
88	0xbc2afb73	-0.010435927
89	0x3d125bf5	0.03573223
90	0xbd2fa426	-0.042881154
91	0x3d83f5ba	0.06443353
92	0xbd108f62	-0.03529299
93	0x3d81040e	0.062996015
94	0xbd95af97	-0.07308882
95	0x3d31ee31	0.043440048
96	0xbd0e0a3b	-0.034677725
97	0x3ccd4bb5	0.025060514
98	0x3d04fa34	0.032465175
99	0x3d149c4a	0.03628186
100	0xbd0176e1	-0.031607512
101	0x3cb73d51	0.022368105
102	0xbd56eca4	-0.05247177
103	0xbd8e7876	-0.0695657
104	0xbd1d42d1	-0.0383938
105	0xbcd7a537	-0.026323898
106	0xbd27ccd3	-0.04096682
107	0x3ca5d145	0.020241389
108	0xbd29314f	-0.04130679
109	0x3c954cf0	0.018225163
110	0xbaba55df	-0.0014216265
111	0x3d9ce3fc	0.07660672
112	0x3d675249	0.056474958
113	0x3d999093	0.074982785
114	0xbcc5c652	-0.024142418
115	0xbd8d26f6	-0.06892197
116	0xbc99cd07	-0.018774522
117	0xbc74bdf9	-0.014937871
118	0x3c9e17da	0.019298483
119	0xba7beb35	-0.0009609939
120	0xbd485e94	-0.04891832
121	0xbd28627d	-0.04110955
122	0xbc83f1df	-0.016106544
123	0xbc35d215	-0.011097451
124	0xbc515a98	-0.012777947
125	0x3d9e6c5e	0.07735513
126	0x3c706611	0.014672772
127	0x3c65a015	0.014015217
128	0x3d364929	0.044503365
129	0x3d664834	0.056221202
130	0x3d7dbbc9	0.061946664
131	0x3d3403eb	0.04394905
132	0x3cac9d0c	0.02107098
133	0x3d3f5ea0	0.0467211
134	0x3b0ad692	0.0021185023
135	0x3cf0978c	0.029369138
136	0x3c79894b	0.015230487
137	0x3a5d82ac	0.00084499526
138	0x3d8cd59d	0.06876681
139	0xbcd43cc3	-0.02590788
140	0x3c5723ef	0.013131126
141	0xbc631441	-0.013859809
142	0x3da52093	0.08062854
143	0x3d163105	0.036667842
144	0x3d991148	0.07473999
145	0xbd371e1d	-0.044706453
146	0xbd8e0687	-0.06934839
147	0xbae40648	-0.0017396891
148	0x3d682d6d	0.056683946
149	0x3d92bbf9	0.07164759
150	0x3d8c084b	0.06837519
151	0xbd7fd1c5	-0.06245591
152	0x3c366fd1	0.011135058
153	0xbd5b21f7	-0.05349919
154	0xbd576d9b	-0.052594762
155	0x3d281eca	0.041044988
156	0x3d9e8b48	0.077414095
157	0x3a7c5192	0.0009625192
158	0x3ace84bd	0.0015756112
159	0xbba8fc8b	-0.0051570586
160	0x3d255120	0.04036057
161	0xbd7fd470	-0.062458456
162	0xbd95eec3	-0.07320931
163	0xbcd778b7	-0.026302679
164	0x3d115126	0.03547778
165	0xbccbd902	-0.02488375
166	0xbb8cbd9d	-0.0042950646
167	0x3d35d2ce	0.044390492
168	0xbdaa0371	-0.08301438
169	0x3ccbd07c	0.024879687
170	0xbd8d5678	-0.06901258
171	0xbd07a1d6	-0.033113323
172	0xbcdf7cab	-0.027281126
173	0x3d0f3600	0.034963608
174	0xbcf32ed1	-0.02968541
175	0xbd372a6a	-0.044718184
176	0xbcf04406	-0.029329311
177	0xbd67e0f1	-0.056611005
178	0x3d227445	0.039661665
179	0xbd166ef2	-0.0367269
180	0xbd8d909d	-0.069123484
181	0x3c06e3e9	0.008233049
182	0x3cd378f9	0.02581452
183	0x3d1f4df3	0.038892698
184	0xbdb86619	-0.090038486
185	0x3b9bd396	0.0047554476
186	0xbd2a8857	-0.04163393
187	0xbd8a3d9b	-0.067500316
188	0x3d39e014	0.045379713
189	0xbd892d54	-0.06698099
190	0xbd502bff	-0.050823208
191	0x3cfc8179	0.030823456
192	0xbd311e5c	-0.043241844
193	0xbd576891	-0.052589957
194	0x3c815211	0.015786203
195	0x3c6fd19c	0.014637377
196	0xbd915471	-0.07096184
197	0x3bb9bf63	0.005668567
198	0x3d7060a9	0.058685932
199	0x3cb2288a	0.021747846
200	0x3bd03e78	0.006355103
201	0x3d033223	0.032030236
202	0x3ba182f6	0.004928942
203	0xbc7de547	-0.0154965585
204	0xbcf92e82	-0.030417684
205	0xbd0bab0d	-0.034098674
206	0xbd1425be	-0.036168806
207	0xbbd77c59	-0.0065761027
208	0x3b838e99	0.0040148017
209	0xbd8c7f4a	-0.06860216
210	0xbd5c6d8c	-0.05381541
211	0x3d6aeb9e	0.05735361
212	0x3cc7569c	0.02433329
213	0xbd431d5a	-0.047635414
214	0xbda9e10e	-0.08294879
215	0x3d506a27	0.050882485
216	0x3c37b69f	0.011212974
217	0x3c932595	0.017962256
218	0x3d5ca134	0.053864673
219	0xbc94fdb4	-0.018187381
220	0x3d021aad	0.03176372
221	0x3d482cc9	0.048870835
222	0xbca8cdf9	-0.020606028
223	0x3d3b47bc	0.045722708
224	0x3d840063	0.06445386
225	0xbda663b4	-0.081244856
226	0xbd6aba05	-0.05730631
227	0x3d5dcb67	0.054149058
228	0x3c86c5df	0.016451774
229	0x3d1ded90	0.038556635
230	0x3d79d16a	0.06099073
231	0xbba80a57	-0.0051281857
232	0xbd4a84b4	-0.04944296
233	0xbdab1ee1	-0.08355499
234	0xbdba2098	-0.09088248
235	0xbd4966ed	-0.049170423
236	0x3ce58313	0.028016603
237	0x3d408ade	0.047007434
238	0xbd6deb88	-0.05808595
239	0x3d0754fe	0.03304004
240	0x3d8ade27	0.067806534
241	0xba8989b8	-0.0010493314
242	0xbd63897e	-0.055551045
243	0xbb59ce9a	-0.0033234716
244	0xbda42f5d	-0.08016846
245	0xbd4b99f0	-0.049707353
246	0x3c6c42f0	0.014420256
247	0xbd0d2ff5	-0.034469564
248	0x3cf83996	0.030300897
249	0xbdba56c1	-0.09098578
250	0xbd94b1a9	-0.072604485
251	0xbda921e7	-0.082584195
252	0x3d2f7586	0.04283669
253	0xbcb0d294	-0.021584786
254	0xbbba162b	-0.005678912
255	0x3d751a26	0.05983939

net.12.bias f4 [3]
0	0x3cec4215	0.028840104
1	0x3c91df85	0.017806778
2	0x3c5d854c	0.01352055
