models/model_good2.pkl (torch, 72905 bytes, 10 tensors)

net.0.weight f4 [20, 3, 3, 3]
00000000: 3ea8 003d 40d4 60bd f157 cc3d 2dee 49be
00000010: 1e7b 953d 9eea 4cbd c0fa ed3d 97b8 bcbd
00000020: 8a5f 39be e41d 293e 1e9b 58bd c287 15be
00000030: ba50 91bd e698 01be 5c62 e6bd 3bb4 48be
00000040: 0023 233e 5516 083e 7c05 293d 88dd 2ebd
00000050: a9e1 49be e443 30be ea30 b83d c4d9 64bd
00000060: 5c18 35bc 6e0a 073e b7e1 0e3e c38d 8fbc
00000070: 921d 12bd 4236 053e 0e9c 563e b0e3 173e
00000080: e3f4 1e3d 831d 19be b571 1cbe 9247 88bd
00000090: 9a72 f0bd 8445 6cbd 4333 9d3d 0625 8e3d
000000a0: 42ed 083e 4cb0 833d 6096 2f3e 3d31 d63d
000000b0: db32 53bd 6874 663d 96f5 fa3d caed 3d3e
000000c0: b6b0 27be 0586 cbbd b197 b7bd 84c7 fa3d
000000d0: d030 99bd 54d9 da3d 31dc 213e c497 143d
000000e0: 05a8 1c3e 2cf9 283d c58c febb bc01 1bbe
000000f0: 38d1 0dbd e73d 293d 74b5 86bd ed1a 253e
00000100: e230 4d3e a2d1 523d a4c1 bfbd d8d3 343e
00000110: b260 14be 4f0f 1d3e b8f8 073c 03ae 883d
00000120: 3eb3 27be 2a5a 39be faf2 f2bd 6cf3 293e
00000130: 493c c03c d93f a13d 55a1 e83d 90bd 5fbd
00000140: 4cdc 45be 7a2b 353e 7198 68bd 4b64 adbd
00000150: 7ace 08be adc8 473e 61f5 8f3d a3a2 093e
00000160: c93a 893d 4206 22be 13d3 023e ddc5 da3c
00000170: 1ed3 2cbe 7ed6 0a3e a72b 653c a549 0a3d
00000180: 779e b63d 8e1f 263e 7cce 363e ff94 3c3d
00000190: 841d 65bd 8ba4 c43d 2977 963d 2a2c 0a3d
000001a0: 1035 b13c 7bd1 18be f85f 86bd dce5 463e
000001b0: 7492 9dbd f7d2 0fbe c236 d7bd 6876 af3d
000001c0: 92ca 13be a1ae 32be 7544 cdbd 4187 b3bb
000001d0: 591f f1bc 3113 2d3e 2942 083e 9f23 73bd
000001e0: cd37 2e3d 58cb 353d f143 22be e330 efbc
000001f0: f8a6 113e d6c1 25be c37d 43bd 3ebe 36be
00000200: 7830 febd f8ea 4dbe 4edf c6bd 74ea 94bb
00000210: 0e60 d33b eaec c4bd 9d33 0d3e f4ea 3cbd
00000220: fd47 383b 3be0 6a3d 28a3 30be a073 313d
00000230: aa9d ee3c c2fb 0ebe f84b 3c3e 9f7c 4d3e
00000240: 5636 303e 9fe4 3d3e 3af7 343e 069a d53d
00000250: 094b e33d 021e a53d 180b 283e 92f0 333e
00000260: c10b 7cbd e588 a1bc 98cd cf3d 3aaf febd
00000270: 8607 303e be11 1bbd 4340 ee3d 6cba fdbc
00000280: 645c d33c 608e d83c 1e5c 483e 9614 d2bd
00000290: 11bd e13d fa47 573c c480 bc3d 9c7c 4a3e
000002a0: 461f 5b3d 452d 973d 2e22 573e e80a 1cbe
000002b0: a797 8fbd e7dc 493e e571 363e 58f3 393e
000002c0: a551 12be ba84 8bbd 5abd ac3d 7238 a23d
000002d0: a77c 57bc 557f a7bd fb5a 1c3e 7d43 29bd
000002e0: 84b7 9abd 5bf0 b83d 0e1a 2fbe aaba e83d
000002f0: 86ce a4bd c687 133e 049a b8bd 6bf5 e63d
00000300: 8f4d 133e e10d 3ebe 505c 27be 4293 0a3e
00000310: 39fc c6bd 5fa6 19be bb3a dfbd 365f 503c
00000320: 79ce bd3d 16c9 023e fbe7 db3d 48f6 8ebd
00000330: 6646 b43c 0e15 5abd 1e11 2abe 1af4 cf3d
00000340: e3d4 a53d b812 693d c934 473e 387c 94bd
00000350: fac0 1e3e 09f8 29be 9fa5 ed3d a04c 10be
00000360: becf 153e 748e 02be 873d 00be f33e c53d
00000370: 674c 11be e939 83bc c797 553d 6f6b 4dbd
00000380: e6db ea3c a027 433e 99ae 783d a63c e0bd
00000390: 283d 8a3d d74c 4e3e e3f9 18be d947 f13d
000003a0: 48b0 923d b4b2 66ba 9e82 2dbe 9456 3e3c
000003b0: d5d1 afbd fea3 343e 30c2 493e f1fe 103e
000003c0: 3598 223e 602a 4fbd ec73 1c3d 58a3 883d
000003d0: d781 523e cfb1 08be 33c2 983d f8a4 343e
000003e0: b973 2f3e 4ad0 c03c cff7 bf3d acd3 03bd
000003f0: 6ebe 2ebe 11a9 44bd 0d75 71bd d21b edbd
0.03141045 -0.054889917 0.09977711 -0.19719763 0.07298873 -0.050028436 0.116200924 -0.09214895
-0.18102852 0.16515309 -0.052882306 -0.14602569 -0.070954755 -0.12655982 -0.11249229 -0.19600002
0.1593132 0.13289769 0.041264996 -0.042691737 -0.19714989 -0.17213398 0.089937046 -0.05587174
-0.011053171 0.13187572 0.13953291 -0.017523652 -0.03567273 0.13008979 0.20957968 0.1483295
0.03880776 -0.14952664 -0.15277751 -0.06654276 -0.117406085 -0.057683483 0.07675793 0.069406554
0.13371757 0.0643011 0.17147207 0.1045861 -0.05156217 0.056263357 0.12253873 0.1854774
-0.16376004 -0.099376716 -0.0896448 0.12245086 -0.07480013 0.10685983 0.15806653 0.036277547
0.1529847 0.041253254 -0.007768246 -0.1513738 -0.034623355 0.0413188 -0.06577578 0.16123553
0.20038179 0.051469453 -0.09363106 0.17658937 -0.14490011 0.15337871 0.008299045 0.06673815
-0.16376969 -0.18100801 -0.1186275 0.16596764 0.023466246 0.07873506 0.11358897 -0.05462414
-0.19322318 0.17692366 -0.056786004 -0.08466395 -0.13360015 0.19510145 0.07029224 0.13440947
0.067006655 -0.158227 0.12775831 0.026705677 -0.1687741 0.13558385 0.013987458 0.03376164
0.089169435 0.16222975 0.17852205 0.04604053 -0.05593635 0.096016966 0.07346947 0.033733524
0.021631747 -0.1492366 -0.06561273 0.19423622 -0.07693949 -0.1404532 -0.10508491 0.08567506
-0.14432743 -0.17449428 -0.10022823 -0.00547877 -0.029433893 0.16901852 0.13306488 -0.059360143
0.042533685 0.044383377 -0.1584623 -0.029198116 0.1422385 -0.16187224 -0.047727358 -0.17846009
-0.124115884 -0.20109165 -0.09710561 -0.0045445506 0.0064506596 -0.096155 0.1378922 -0.046122506
0.002811908 0.05734275 -0.17249739 0.04332316 0.029127914 -0.13963225 0.18388355 0.2006707
0.17208228 0.18544243 0.17672434 0.10429768 0.11098296 0.08062364 0.16410482 0.17572239
-0.061534647 -0.019718597 0.10146636 -0.124357656 0.1719037 -0.037858717 0.11633351 -0.030972682
0.025800891 0.026435077 0.1956639 -0.10257833 0.1102239 0.013139719 0.092042476 0.19774097
0.05349662 0.07381681 0.21009132 -0.15238535 -0.07011347 0.19713174 0.17816885 0.18159235
-0.14288957 -0.06812425 0.084345534 0.07920922 -0.013152278 -0.081785835 0.15269081 -0.041324127
-0.07554534 0.09030219 -0.17099783 0.11363728 -0.08047204 0.14407262 -0.09013751 0.112772785
0.14385055 -0.18559982 -0.16343808 0.13532737 -0.097160764 -0.15004872 -0.10899874 0.012718013
0.09267897 0.1277202 0.10737606 -0.06980568 0.022006225 -0.053242736 -0.16608092 0.101539806
0.080972455 0.056902617 0.1945373 -0.07250255 0.15503302 -0.16598524 0.11603855 -0.1409173
0.14630029 -0.12749654 -0.12523471 0.09631147 -0.14189301 -0.016018825 0.0521467 -0.050151285
0.028669309 0.19058084 0.060713384 -0.10949068 0.06749946 0.201465 -0.14939074 0.11781282
0.07162529 -0.00088004326 -0.16944358 0.0116173215 -0.08584944 0.17640683 0.19702983 0.14159752
0.15878375 -0.05057752 0.03819649 0.0667178 0.20557342 -0.13349079 0.074589156 0.17641056
0.17133988 0.02353682 0.093734376 -0.032184288 -0.1706483 -0.048012797 -0.05894952 -0.11577572

net.0.bias f4 [20]
00000000: a433 21bd 8c9f c03d 0a68 cbbd 68f5 d83d
00000010: e378 20be 4a93 8b3d 73fb 60bd 6be0 3dbe
00000020: 19ef 513e 2292 0cbc 6897 6a39 e548 1abe
00000030: 04dd 103e c4a7 0cbe 8b24 e0bb cae0 df3d
00000040: 9986 2b3e 5cc0 693d 8ff1 ba3d 05ff 99bd
-0.03935589 0.09405431 -0.09931953 0.105936825 -0.15671115 0.068152025 -0.0549273 -0.1854264
0.20501365 -0.008579763 0.00022372382 -0.1506687 0.14146811 -0.13735873 -0.0068402938 0.10931547
0.16750564 0.057068214 0.09128105 -0.07519344

net.3.weight f4 [40, 20, 3, 3]
00000000: 3f87 9b39 1246 a9bc bef3 51bc 660e 3c3a
00000010: a86d 123d 6b1b 27bd 4263 fcbc 30f0 5e3c
00000020: 8f41 933d a1be 673d 143b 10bc 66b3 dbbb
00000030: 6eb8 aebb af13 873d 91bd 50bd d6eb ef3c
00000040: 5a0d 923d 238b 50bd 118c 70bd b72f 3fbd
00000050: 940b 003d 886d 193a 9f62 e4bc cb41 943d
00000060: 4cc6 863c 5ca5 e43c 326f 19bd 60d8 3c3d
00000070: b0f0 d33b 344e 66bd 305d 3e3d b70b 013d
00000080: 1e73 d8bb 0564 8cbd 2e41 70bc e748 2b3c
00000090: 7d36 783d 3b3e 9cbc f8f7 5b3d 148f 3ebd
000000a0: bb4c b6bc 6092 f83b 980e e53b 7784 6f3b
000000b0: e790 c6bc dd0c 73bb 0ef2 893d 35e6 0ebc
000000c0: de0f 0cbd e83a 133c caa4 643c 46c0 69bd
000000d0: 3fd7 863c 777e 74bd 5c05 0f3d 01e3 1f3d
000000e0: 671e 2f3d 96bf 26bd c89a 26bd d714 923d
000000f0: 118b 903d 3f65 213d 1a1b 1c3d 2553 24bd
00000100: 5bfd 46bd 9b87 febc 4094 f93c a4fa 59bd
00000110: fc2e ffbc c004 8c3d 2fb1 69bd b698 bebc
00000120: 8359 43bd 7fec cd3b 2815 423b a99f 933c
00000130: 0e54 4d3d 1543 49bd fa1c 24bd 80f3 55bd
00000140: a58c dd3b d244 5dbd 4eb6 833d 4c40 333c
00000150: 4119 11bc 4678 883d ac6d b3bc 1d1b 4fbd
00000160: e782 d4bc 6340 fbbc dcd2 babc 43e7 193d
00000170: e9b7 923d 170d 943d d9a6 80bd 5422 513d
00000180: 2609 583c 64f4 35bd e7cc 05bd 60f2 0bbc
00000190: 9f0b 4cbd 8133 89bd 3008 20bd eea4 1cbd
000001a0: f48d 5a3c adfb 27bc b04b d53c 6c12 5e3c
000001b0: 3b41 f2bc 6897 34bd d5fe 2e3c 21f7 0fbd
000001c0: 063c 64bc 7229 3f3d ad4a 8bbd 9deb aa3b
000001d0: 564b 283d 485a 9abd f2a0 ae3c 910e 5c3d
000001e0: 04b2 ec3b 6f59 be3a d6ad 323d 7dab 4cbd
000001f0: 21a9 6cbd d042 82bd ff92 743d d2bd 863b
00000200: 3a11 20bd a01c 70bd 62e9 85bd 49f2 0abd
00000210: 110c 76bd 69d5 80bb 25f5 653d c341 063c
00000220: 506a 303d 1146 8b3d abf4 0a3d d17a 59bd
00000230: 4e57 44bd 8891 42bd acd3 8b3d 4f52 ed3c
00000240: 7185 1dbd 79db 713c cd83 df3c 69f0 91bd
00000250: e1bf 723c 0a9a 1bbd 54ad 1abd 888b 73bd
00000260: a176 6fbd 7925 973d b1f4 2bbd f84e 17bd
00000270: d033 813d 4549 11bc ee78 7cbb ce16 053b
00000280: df5b 223c 1966 a9bc 8d2d 723c 6b2e e43c
00000290: 4898 413d b974 763d 541c 733d 4fc4 23bd
000002a0: 1fe2 eebc fd72 4fbd 4c84 d93c bd2d b1bc
000002b0: 584d 883d d12b 03bd 626a 93bc e171 d53c
000002c0: 5ba3 7e3b bfd9 20bc 6311 553c 53e9 db3b
000002d0: 013a 433b 97e7 bdbc b979 afbc 1423 08bc
000002e0: f249 6bbd 646f 803d 5c89 4ebd 01d1 863c
000002f0: d849 a63b 9f70 943d 250b 843d 4a2e 61bd
00000300: c442 393d 90e9 083d c7e0 16bd e368 443c
00000310: 165c 913d c912 95bb 1310 a13d 51ae c6bc
00000320: 0e87 76bd 0adc 56bd 9a27 a03d c084 d8bb
00000330: 0bf3 78bc 1495 79bc 4e8a 6d3c def6 233c
00000340: 7e4b 3dbd 152a 5dbb df78 f33c 2114 483b
00000350: 89ea 3a3d 7b61 9f3d 3a4e 843d 233f 62bd
00000360: 4549 50bc 3f1e 71bd 92ad 29bd 3349 04ba
00000370: 897d 3cbc 7f2f 30bc 46af 5a3d b6a0 9fbc
00000380: ceac 8bbd fd02 30bd 4123 853c a8b5 d83c
00000390: 45b9 093d 7a76 753c 57d2 91bc db87 183d
000003a0: 2497 c8b9 2f9b 1f3c deb4 d0bc d01d 2f3c
000003b0: aee3 6abd b85f a33d 78ad 603d 343b 3abd
000003c0: 5561 54bd 900c 8c3d 881b fc3c ba45 27bc
000003d0: 6224 02bd 99af 82bc b971 17bd 5603 183d
000003e0: 095d 163d d379 5f3c 4785 653c d370 a13c
000003f0: cd36 573d 0514 783d 221c 13bd d1bc 18bc
0.0002966467 -0.020663295 -0.01281446 0.00071737764 0.035749108 -0.040797632 -0.030809049 0.01360707
0.07190239 0.056578282 -0.008803148 -0.0067047356 -0.0053320443 0.06595551 -0.050962035 0.02928726
0.07131453 -0.05091394 -0.058727328 -0.046676364 0.03126104 0.0005852808 -0.027879057 0.072391115
0.016451977 0.02791088 -0.03745956 0.04610479 0.006467901 -0.056226924 0.04647559 0.031505313
-0.00660552 -0.06855015 -0.014663978 0.010454393 0.06059884 -0.019072643 0.05370328 -0.04652317
-0.022253385 0.0075858086 0.006990265 0.003654746 -0.024239017 -0.0037086525 0.067356214 -0.008721878
-0.03419482 0.008986212 0.013955304 -0.057068132 0.01646006 -0.05969092 0.03491722 0.039034847
0.042753603 -0.040710054 -0.040674955 0.07132881 0.07057775 0.039403196 0.038111784 -0.040118355
-0.048581462 -0.031070521 0.030466199 -0.053217545 -0.031150334 0.068368435 -0.05705374 -0.023266178
-0.047692787 0.006284296 0.002961466 0.018020468 0.05012899 -0.04913624 -0.040066697 -0.052234173
0.006761151 -0.05402071 0.06431256 0.010940623 -0.008856119 0.06663565 -0.021902882 -0.050562967
-0.025941325 -0.03067035 -0.022805624 0.037574064 0.07163984 0.07229059 -0.06281824 0.05105813
0.013185775 -0.044422522 -0.032666113 -0.008541673 -0.04981577 -0.06699277 -0.03907031 -0.038243227
0.013339508 -0.010252875 0.026037067 0.013554197 -0.02957212 -0.044089705 0.010680874 -0.03514779
-0.013930326 0.046670385 -0.06801353 0.0052160756 0.04108747 -0.07536751 0.02131698 0.05372483
0.0072233696 0.0014522503 0.043622814 -0.04996823 -0.05777848 -0.063604 0.0597105 0.004111984
-0.03907893 -0.05862105 -0.06538655 -0.033922467 -0.0600701 -0.0039316905 0.05614199 0.00819439
0.043070138 0.068004735 0.03392474 -0.053095642 -0.047934823 -0.04750207 0.068274826 0.028969912
-0.038457338 0.014761799 0.027284527 -0.07125933 0.014816255 -0.0379887 -0.037762955 -0.05945924
-0.058462743 0.07380194 -0.041981403 -0.036940545 0.063087106 -0.0088675665 -0.0038524228 0.0020307782
0.009909599 -0.020678567 0.014781368 0.027854165 0.047264367 0.06016991 0.059353188 -0.039982136
-0.029160557 -0.05064677 0.026552342 -0.021628255 0.06655377 -0.03202421 -0.017995063 0.026055278
0.0038854692 -0.00981754 0.013004634 0.006711164 0.0029789212 -0.02318172 -0.021420347 -0.0083091445
-0.057443567 0.06271246 -0.050423965 0.016457083 0.005074721 0.07248043 0.06447438 -0.054975785
0.04522969 0.033425868 -0.036835458 0.011987898 0.07097642 -0.0045493585 0.07864394 -0.024253042
-0.060187392 -0.05245594 0.078200534 -0.006607622 -0.015194665 -0.015233297 0.014498306 0.010007588
-0.046214573 -0.0033747007 0.029720722 0.0030529576 0.045633826 0.07782265 0.06460233 -0.055235993
-0.012712781 -0.058866736 -0.041425295 -0.0005046308 -0.011504539 -0.010753511 0.05338981 -0.019485813
-0.06820069 -0.0429716 0.016252162 0.026453808 0.033623952 0.01498186 -0.017800493 0.037238937
-0.0003825958 0.0097415885 -0.02547687 0.01068826 -0.05734604 0.07977241 0.054852933 -0.045466617
-0.051850636 0.068383336 0.030774847 -0.010209495 -0.03177298 -0.015952872 -0.03697369 0.037112556
0.03670982 0.013639885 0.014008827 0.01970712 0.052542496 0.060565967 -0.0359155 -0.009322361

net.3.bias f4 [40]
00000000: fd65 0fbd 4b1a 883d dee5 e4bc 4345 13bd
00000010: 0f43 b23d a18d 95bc a976 443d c840 41bd
00000020: 3ffe adbb 9221 843a bebf 0e3d e254 a63d
00000030: a0e4 f6bc 2e00 6f3d 73cb ff3c d6be 8e3d
00000040: a912 883d 79fa 25bc 2444 4f3d 6a17 3fbd
00000050: c3bc 2fbc 508a 953d 4aae 633d d21a 9e3d
00000060: 8b8c 2f3d 4c61 823d 24a7 9a3d 989f 54bc
00000070: 9555 2f3d 7dc0 73bc e87f 0b3d f2b1 523d
00000080: c8bc 2bbd ea55 7b3d e749 d53c 8060 303d
00000090: 901b 493d 3a3d 73bc 2e87 43bd d577 e63c
-0.035009373 0.0664564 -0.02794164 -0.035954725 0.08704197 -0.01825601 0.047964726 -0.04718092
-0.0053098495 0.0010080806 0.03485083 0.08121659 -0.030138314 0.05834978 0.031224942 0.06969993
0.06644184 -0.010130518 0.050602093 -0.04665319 -0.010726157 0.07301772 0.055586137 0.07719959
0.04285864 0.06366214 0.07551411 -0.012977503 0.042806227 -0.014877436 0.034057528 0.051439233
-0.041928083 0.06136123 0.026036216 0.04306078 0.04909855 -0.0148461405 -0.04773634 0.028133312

net.6.weight f4 [20, 40, 3, 3]
00000000: 8325 143d f295 82bc cf06 4f3d c2dc 0ebc
00000010: ab26 353d d720 253c 6a63 0cbc 2d2b 12bd
00000020: 48f1 2e3d 73dc 0f3d 2c51 863d 789d 223d
00000030: 600a 563d bed6 2ebc 3c2f a23c a78e 0f3d
00000040: d2b7 8f3c d4ec 873d 159f c9bb 9f4e 853d
00000050: 4413 e4bc 7f61 513c b5ca c23b 5ad6 1a3d
00000060: 83f0 493d c782 8fb9 ad33 423d e3c0 28bd
00000070: 4c8f 413d b1e3 26bd c45e 473d 5094 7bbc
00000080: a1bc 10bc 6398 c1bc 884d 663c e8e9 4c3d
00000090: 00bb 6b3d 8983 283d ceaa cb3c a009 443d
000000a0: c7bb 703d 6416 3a3c 02fe d33c a282 013d
000000b0: 05ab 303d d9f1 4f3c d6c8 1b3d 3d39 47bc
000000c0: a9be d33c 53a1 13bd 3238 713d cf24 f4bc
000000d0: aa6c 23bd c8c7 ffbc d41b 5dbb e647 aebc
000000e0: a7a1 663d 1e9b e83c 2409 babc 45e5 6d3d
000000f0: d040 03bd 709a 273d 2e06 0cbd 09d8 b53a
00000100: 0d78 583d ada9 b33c f183 503d b60e d0bc
00000110: a8e5 0dbc 38de d2bc a21f 7d3c 7a13 cdbc
00000120: dd6b 853b 69a6 1dbd b339 2b3d 4f8a 663a
00000130: 0305 a3bc 6190 f43c 2af8 453d 5e2f 1cbd
00000140: 4d86 3639 fa75 b23b 8285 36bc 147d 11bd
00000150: 5f89 38bd 4e45 1cbc e46e a2bc 5087 5b3d
00000160: 5ec4 8f3c a5bd fb3c 2a50 91bc cf85 37bd
00000170: 43ea 883c bce0 383c 8e22 1d3b 5924 2cbd
00000180: e32d 3fbc 53f0 15bc 8d89 14bd 0d20 77bb
00000190: 39c8 283d 6580 15bd b681 1ebd 60d9 dd3c
000001a0: 5bce 533d 8759 1abd 6cdd fc3c c19c 1c3c
000001b0: f454 69bd 9063 78bd 6811 ac3c 8cdc 5ebc
000001c0: 6fc8 02bd b8e8 9fbb bce7 273d 1a93 443d
000001d0: 9fd2 67bd c6eb 373d a69f d1bc 5466 75bb
000001e0: d614 243d 3f83 2a3d 1c1b 84bb e07f 96bc
000001f0: 34a6 f9bc 8d9f 493d e303 fd3c 431d 803d
00000200: 5055 b8bc 646f 223d fa6d b2bc fce0 e9bc
00000210: c77d e9bc 0360 513d d76d dcbc ecee 22bd
00000220: 472a 04bd be27 213d 360e c93c d15f 42bc
00000230: 52e3 c1bc 02bb 403c 63e5 04bd bb76 0cbd
00000240: a4ba e7bc b8ef 21bd bb03 6fbc 75b6 1cbd
00000250: 2051 303d b5cf a5bc ed13 fbbc 7b74 053d
00000260: 80f2 a0b8 50ce 013d bd2c 6b3b 3bb3 7b3c
00000270: 64fc f3bc aeee 45bb 9769 58bb 4298 683c
00000280: a14c 2ebd dd19 85bc 2cea 953c 5496 263d
00000290: c07c 8e3c 09e5 2cbd 6cac 6abd f11f d83c
000002a0: 58a0 23bd 141d ca3b de24 01bd 7e1f 223d
000002b0: 16fd 153c 6e0d 8abb 1896 aa3c 560c 303d
000002c0: 3ecc babc 424a 13bd 44e8 3b3d f0fe 1cbc
000002d0: d2bf 103c 6ab4 82bb ad57 6e3d c48d 4a3d
000002e0: 0665 33bc 72c8 253d 36c2 ea3c 6f4f 1c3d
000002f0: c99d d1bb d89f 0a3d d703 3a3d e483 293d
00000300: 533a e13a d0a8 863d b4c0 ba3b c8fc 0dbd
00000310: da94 a3bc 6e7e 6e3a 82da dbbc 6b2d 4fbd
00000320: 8e7f 403d dcf8 cdbc da39 573d 0d00 f1bc
00000330: 382c 763c b3b6 78bc 28fb 0dbd b6cf 7b3d
00000340: d3c2 08bd 5968 223d 5669 763d c34a e43c
00000350: 5df9 3d3d 361a ee3c e4d8 903c 4041 403d
00000360: c8a9 d63b 4cca 24bd 32b1 403d 404e febc
00000370: a260 723d b121 e93c 4797 d5bc e4aa 553d
00000380: 208b d0bc 2ff4 6ebc 7704 3e3d 8ced 433d
00000390: e478 143d 86a2 b8bc 32b5 40b9 4cde 183d
000003a0: b4ed da3c a143 1cbd ea05 d4bb cb53 1ebc
000003b0: d51e 713c 90fd eb3c da42 03bd 7af9 5d3c
000003c0: d194 1f3d 97d1 033d 03ee d43c 9492 8ebc
000003d0: 8019 213d 977b 42bc 235d e63c 837f 2b3d
000003e0: 4dac f93c 121b 5c3d 45e9 4f3d 1caa 85bc
000003f0: 0168 9e3b d423 5bbd d50d 0bbd 7109 b5bc
0.036168586 -0.01594064 0.050543603 -0.008719625 0.04422633 0.01007863 -0.008568624 -0.035685707
0.042710572 0.035122346 0.06558451 0.039700955 0.052255988 -0.010671316 0.019797914 0.035048153
0.017543707 0.06636968 -0.0061529973 0.065091364 -0.027841218 0.012779593 0.0059445747 0.037802078
0.049301635 -0.00027372522 0.047412563 -0.041199576 0.0472558 -0.040744487 0.04867436 -0.015355185
-0.008834035 -0.023632234 0.014056571 0.050027758 0.057551384 0.041141067 0.02486172 0.04786074
0.05877283 0.011357877 0.025877956 0.03161872 0.043131847 0.012691938 0.03803333 -0.012159643
0.02584775 -0.036042523 0.058891483 -0.029802708 -0.039898552 -0.031223193 -0.003373851 -0.021274518
0.056306507 0.028394278 -0.022709437 0.058079977 -0.032044232 0.040918767 -0.03418558 0.0013873588
0.052848864 0.021931494 0.05090708 -0.02539764 -0.008660711 -0.025740728 0.015449436 -0.025033701
0.004071696 -0.03848878 0.041803073 0.00087944133 -0.01989985 0.029854001 0.04833237 -0.03813111
0.00017406903 0.005446193 -0.011140229 -0.035519674 -0.045052882 -0.009538008 -0.019828267 0.05359584
0.01754969 0.030730078 -0.01773842 -0.044805344 0.016713267 0.01128405 0.0023976895 -0.04202685
-0.011668655 -0.009151536 -0.03626399 -0.0037708313 0.041206572 -0.0364994 -0.03869792 0.027081192
0.051710468 -0.037683036 0.0308673 0.009558857 -0.056965783 -0.060641825 0.021004394 -0.013602387
-0.03192943 -0.004880037 0.040992483 0.04799185 -0.05659735 0.044902585 -0.025588822 -0.0037445026
0.040058933 0.041629072 -0.004031552 -0.018371522 -0.03047476 0.049224425 0.030885642 0.06255581
-0.022501618 0.03965701 -0.021780957 -0.028549664 -0.028502358 0.051116955 -0.026907844 -0.039778635
-0.03226688 0.03934454 0.02454291 -0.011863665 -0.023667965 0.011763336 -0.032445323 -0.034292918
-0.02828724 -0.039535254 -0.014588292 -0.038259942 0.043046117 -0.020240644 -0.03064915 0.032581788
-7.674564e-05 0.031690896 0.003588482 0.015362556 -0.029783435 -0.0030202079 -0.003302192 0.014196457
-0.042553548 -0.016247684 0.018300138 0.040670708 0.01739347 -0.042210612 -0.05729334 0.026382418
-0.039947838 0.006168017 -0.0315293 0.039580815 0.009154579 -0.0042130267 0.020823523 0.042980514
-0.022802468 -0.03595949 0.045875803 -0.009582266 0.008834796 -0.003988792 0.058189083 0.049451604
-0.010949379 0.040474363 0.02865706 0.03816169 -0.0063969833 0.033843845 0.04541382 0.041385546
0.001718352 0.06575167 0.0056992415 -0.0346649 -0.019968439 0.0009097819 -0.026837591 -0.050580423
0.046996646 -0.02514308 0.052545406 -0.02941897 0.015025191 -0.015180278 -0.03466335 0.061477385
-0.033388924 0.039650295 0.06015905 0.02786768 0.04638039 0.029065233 0.017681547 0.046937227
0.006551001 -0.040231988 0.047043987 -0.031043172 0.059174187 0.028458448 -0.026073111 0.052164927
-0.025456965 -0.014584585 0.046390977 0.047833964 0.036248103 -0.022538435 -0.00018378047 0.037321374
0.026724674 -0.038150433 -0.0064704316 -0.0096635325 0.014716824 0.028807431 -0.032046176 0.013548249
0.03896028 0.032182302 0.0259924 -0.017403878 0.03933096 -0.011870286 0.028120583 0.04186965
0.030477667 0.053736754 0.050759573 -0.016316466 0.0048341756 -0.053500965 -0.033948738 -0.022099229

net.6.bias f4 [20]
00000000: 96f4 2d3d 0437 b53c d5cd a13a fa35 1bbd
00000010: 230d 1f3c a4a7 39bd e638 1f3d 65ae ecbc
00000020: 73a7 2e3d ecf9 6b3b d44f 5c3d 8ed0 bbbb
00000030: 515b ebbc d3a9 25bd 5d70 07bc fac7 c93c
00000040: fa86 a5bc 905c 403d 132f 093d 7c28 383d
0.042469583 0.02212096 0.0012344668 -0.037893273 0.009707722 -0.04532589 0.038872622 -0.028891752
0.04264016 0.003600712 0.053787068 -0.0057316488 -0.028730066 -0.04044516 -0.008266536 0.024631489
-0.020205963 0.046963274 0.03349216 0.044960484

net.9.weight f4 [10, 20, 3, 3]
00000000: 1cd1 a5bd 0299 a8bd 483b 33bd 32f3 a2bc
00000010: 8e83 79bd c5cf 1d3d 5527 2cbd 9c30 a53d
00000020: d73a b83b e564 b73c dedc aebc 3c55 4dbc
00000030: ceb0 2ebd 19b4 f83c 6985 0d3d 495a 913d
00000040: 2e33 0e3c 06d0 4c3d ea66 8a3c 4a2a 003c
00000050: 2da4 4abd 6989 bebc 8f0d 073d 9f60 0fbd
00000060: a0c3 41bb 1518 ec3c a411 babc 1ae1 2f3d
00000070: 74df 8d3c 39c0 dbba 8a1a 653d 61aa 4abd
00000080: d309 773d ac66 8abd c943 6aba bcf0 febb
00000090: 2e44 c8bc 5a23 85bd 1424 1dbd 6cdf 01bd
000000a0: 7a09 dd3c b9c1 153d cdd6 9abd 928e 25bb
000000b0: cfde 0cbd 749a 7b3b 142e 133d 2f25 7cbd
000000c0: fbfb 00bd cac8 26bd 69b7 c4bc c11f 843c
000000d0: c2f8 153d 5923 f1bb 5ec8 f03b 07b3 94bd
000000e0: 1cfb 983d 194a 50bb 87c6 123d cd79 74bd
000000f0: b090 f93c 4ae0 71bd 208c 09bd 978f 52bd
00000100: b315 4d3d 4ba3 a63d 92d4 733d a197 b83b
00000110: 77be ca3a 210b 9f3d b848 723d 7410 35bd
00000120: 864c 033d 2e69 373d e51f a33d 7a6d 083d
00000130: 6788 32bd 37c9 4fbd 626b f9bc b216 41bd
00000140: fa3f 42bc 7f2d 2d3d def0 733c e9e0 d43c
00000150: 6a78 133d c1b5 6b3c f2ee 31bc 465c 123d
00000160: d842 f7bb 6225 9b3c eac1 0f3d 1ec8 2d3d
00000170: cae4 aa3d 2389 2f3d 80bf 25bc d0f3 8abc
00000180: f6ff 543d 906b babc 5450 5abd b05c 61bd
00000190: fcb2 dd3c f2f0 7cbc 2d54 953d 6ec1 713c
000001a0: 6d2f c3bc 6865 a1bb b726 803d 3684 e53c
000001b0: b200 b6bc a98b 033d c4f3 66bd dc57 283d
000001c0: d37b fa3c 08a3 c9bc 7c8c a53c 3029 3fbd
000001d0: 97ad 913c 4bba febc 48b7 393d f35e 75bd
000001e0: 5efa 503d cb3d 273d e2a6 ad3d 8e00 04bd
000001f0: 1479 6d3d 446a b2bc 26ca 533d fb66 523d
00000200: aad2 143c 46fb 3dbd 1b5e 00bc aed2 21bd
00000210: 7079 a6bc 52e9 813d f7e3 56bd 41f9 ff3c
00000220: 910c e8bc 8543 9c3d 22ff 3f3c 94fb 2abc
00000230: 6777 523d f0a3 103d b52e 5cbd 8497 37bb
00000240: d206 88bd 21df 01bb aade 7ebd ff14 623c
00000250: 5880 81bc b5fb e63c 8136 44bd 2f22 123d
00000260: 7c7f d3bc db6b 5bbd 938d 06bd e0c3 cfbb
00000270: 5283 73bd edde 5dbd be0d 9c3d 3c68 293c
00000280: 041d 79bd 0d8f 0e3c ae39 f3bc 72c8 7ebd
00000290: 705d 693d 1f1b 08bc ca19 9d3d 1d57 b93c
000002a0: 4251 853d dddf 153d 0a36 ca3c 4be0 ce3c
000002b0: 054b 6bbd ccf0 58bd ae8d a23d 2b21 7a3c
000002c0: 28fe 6bbd f122 66bd dec5 993c 8c57 3fbd
000002d0: dcab 9dbd 3291 a2bc dc83 2d3c 8768 233d
000002e0: 13ec 95bd da69 56bd 4f75 8bbd ae5b a5bb
000002f0: 319c f3ba 90d8 78bd a853 4f3d 4a7d 31bd
00000300: bad7 023d 406b 163d 7d4f 923b 483e 2f3d
00000310: 9b5f 70bd d3f4 93bb 1a24 0cbd a0f2 07bd
00000320: 5e88 3ebd d13b f53b b476 e5bc 218e 1b3c
00000330: 3666 6dbc 005a 8fbd 4e2f 743d 3a01 873d
00000340: 2c2c 3a3d f77a 2dbd 0323 6e3d 395d dbbc
00000350: 9926 3e3d 736f 533c 91fe f0bb e122 5e3d
00000360: 4dc8 7f3d 9ee7 f23c 329e 753d 326c 913d
00000370: c8a1 ef37 48d0 94bd 2dee 30bd cf32 0ebd
00000380: 9f8f 89bd 4b40 c1bc 3e35 91bd 08dc a23d
00000390: f241 48bc a30b 56bd 8e42 d33c 6428 65bc
000003a0: 3a90 663d cb7c 633d 6c81 04bd 43e6 ccba
000003b0: aeed 38bb ab1d 4e3d e6e3 90bd 6da9 863d
000003c0: 0699 76bd 8ba8 623b 6906 7dbd a87e af3c
000003d0: 7afa 53bd 8e69 813d 6369 833c 6eac 86bd
000003e0: 091c 3ebd 1f01 18bd 6cca 9cbb 5d52 77bd
000003f0: a06c 713d e810 a33d 2ea3 623d dc47 2b3d
-0.08096525 -0.08232309 -0.043757707 -0.019891355 -0.060916476 0.038528223 -0.042029697 0.08065912
0.0056222486 0.022386977 -0.021345552 -0.0125325285 -0.042649083 0.030359315 0.034551058 0.07097299
0.008679194 0.050003074 0.016894776 0.0078225825 -0.049472976 -0.023258882 0.032971915 -0.035004254
-0.0029566064 0.028820077 -0.02271349 0.042939283 0.017318465 -0.0016765661 0.055933513 -0.049478892
0.060312103 -0.06757864 -0.00089364924 -0.0077801626 -0.024446573 -0.065008834 -0.038364485 -0.031707212
0.026982058 0.0365617 -0.07560501 -0.002526198 -0.034392174 0.0038391622 0.035932615 -0.0615589
-0.031490307 -0.04071883 -0.024013238 0.016128423 0.036614187 -0.00735895 0.0073481044 -0.07260709
0.0746977 -0.0031782447 0.03583386 -0.05968647 0.0304645 -0.05905179 -0.0335809 -0.05140647
0.050069522 0.081366144 0.059528895 0.00563331 0.001546814 0.077657945 0.05915138 -0.044205144
0.0320554 0.04477804 0.07965068 0.03330753 -0.043587115 -0.050729003 -0.030446712 -0.047140785
-0.0118560735 0.042279717 0.01488897 0.025986152 0.036003508 0.014386595 -0.010860192 0.03573253
-0.00754581 0.018938724 0.03509704 0.042427175 0.08344419 0.042855393 -0.010116458 -0.016961962
0.052001916 -0.022756368 -0.053299263 -0.055020034 0.027062885 -0.015438305 0.07291446 0.01475559
-0.023826325 -0.0049254186 0.06257384 0.028017145 -0.022217128 0.032115612 -0.056384817 0.041099414
0.030576622 -0.024613872 0.02020859 -0.04667014 0.01778297 -0.03109469 0.045340806 -0.059905004
0.05102002 0.040830415 0.08479096 -0.03222709 0.057976797 -0.021779187 0.051706456 0.05136774
0.009083429 -0.04638221 -0.0078349365 -0.03950756 -0.020321578 0.063433304 -0.052463498 0.031246783
-0.028326305 0.07630066 0.011718543 -0.010435957 0.051383402 0.035312593 -0.05375548 -0.0028013894
-0.06641926 -0.0019816833 -0.062224068 0.013798951 -0.01580827 0.028196195 -0.04790354 0.03567713
-0.025817625 -0.053569656 -0.03284986 -0.006340489 -0.05945141 -0.054167677 0.076198086 0.010339793
-0.060818687 0.008701098 -0.02969059 -0.06220288 0.056973875 -0.008307247 0.076709345 0.022624547
0.06509639 0.036590446 0.024683971 0.025253436 -0.05744459 -0.052964017 0.079371795 0.015266697
-0.05761543 -0.056185666 0.018771108 -0.04671435 -0.07698795 -0.019844625 0.01059052 0.039894607
-0.07320418 -0.05234704 -0.06809484 -0.0050463295 -0.0018585977 -0.060753405 0.05061689 -0.043332376
0.031944014 0.036723375 0.004465042 0.042784005 -0.058684926 -0.0045152693 -0.034214117 -0.03319037
-0.04651677 0.0074839373 -0.028010704 0.009494335 -0.014489701 -0.06999588 0.059615426 0.06592031
0.04545228 -0.042353597 0.05813886 -0.02677785 0.04642353 0.0129049895 -0.0073545654 0.054232482
0.06244688 0.02965146 0.05996532 0.07100715 2.8566355e-05 -0.07266289 -0.043195892 -0.034716424
-0.06716847 -0.023590228 -0.07090233 0.07952124 -0.012222754 -0.05225719 0.025788572 -0.013986681
0.05628989 0.055538934 -0.03234999 -0.0015632588 -0.002821784 0.050321262 -0.07074718 0.06575284
-0.06020453 0.0034585323 -0.06177369 0.0214227 -0.051752545 0.06318961 0.016041463 -0.06575857
-0.046413455 -0.037110444 -0.0047848728 -0.060381282 0.058941483 0.07962209 0.0553314 0.041816577

net.9.bias f4 [10]
00000000: 8334 9a3d eb8d 883c fe5a f73b 5675 3fbd
00000010: 3fa8 59bc b5a4 9abc c667 5abd 45f6 983c
00000020: 739d 913d 87b8 19bd
0.07529547 0.016669234 0.007548689 -0.04674276 -0.013284742 -0.018877367 -0.053321622 0.018672118
0.07110109 -0.037529495

net.12.weight f4 [3, 10, 4, 4]
00000000: bc74 813d f06c 9b3d 8752 99bd 1b18 423d
00000010: 1da4 d8bc cf53 6d3d c2b1 f83c 0358 9a3d
00000020: 4dc7 f33c 68bf 0e3d afdd 8abd db1f f4bc
00000030: bc05 2f3d 9508 b4bc aee8 05bd 0c78 78bd
00000040: 1a54 4f3d 5d19 37bd a4e3 8abd c2e4 c8bc
00000050: fd45 1a3d aec9 5d3d 4941 0a3d ae9d 07bd
00000060: 3920 e4ba 6826 673d 800b 423d 954e 483d
00000070: 4aeb 90bd 3c3e fc3c 9b7d 783d bcc2 e2bc
00000080: d554 02bd e9bc 193d 2e6d f6bc 3ff6 523d
00000090: 7a57 243d cfcf 9a3d ba12 5abc 9ab9 003c
000000a0: 7c0a 033d e983 60bc e4b4 b33c 5eba 763d
000000b0: 9edd a2bd 8468 5dbd c534 4f3d cbbd cfbc
000000c0: 5ef2 1e3d 8cf9 713b d861 a2bd a483 993d
000000d0: cbc6 94bc a1a3 b4bc 2133 0abd ed98 4cbd
000000e0: a448 b03c 2ad4 37bd fd73 d53c 5ad5 ef3c
000000f0: e62d efbc d401 c33c 08be 893d 92a5 3cbd
00000100: e1ac 8d3d c2c6 823d 5d06 413d d713 df3c
00000110: 736b 6a3c d959 a93d b99f 303b 4d5e 6d3d
00000120: 54af a6bd fdea 6f3d 7443 163d 02c7 8dbd
00000130: 8a72 11ba 0017 0abd f664 4a3b a8d7 743d
00000140: 4389 70bd 2429 453b 8532 13bd acfc 393c
00000150: 375b 66bd 41c3 a53d da8c 853d e202 8dbc
00000160: 4aa7 97bd e0a1 5a3d 79a1 53bc cecb d5bc
00000170: dd79 8ebd c666 57bd 1d0f 8a3d cb5a 8c3d
00000180: 1965 bebc e4ef 0c3d c50c a8bc 1020 5ebb
00000190: f86c 93bc 0962 c5bc 174f 7ebc 18a3 e0bc
000001a0: b7de d83c bc25 0cbd 7e52 46bd e323 253b
000001b0: abf7 51bd e46a 72bd 529d f13c a9fe 783c
000001c0: 6229 28bd 3b47 2dbd 5f5d bbbc 0895 c83c
000001d0: 0f1b 253c 3794 d2bc 1ed2 0cbd a8ba 4ebb
000001e0: 4670 3c3d b85e 083d 6ea2 f43c e364 803d
000001f0: 6ba8 8d3d e993 9cbc 1c98 b7bc ec76 693d
00000200: 3aaa 333c a451 88bd 997d 8f3d b44e debc
00000210: daca 1cbd fa5d 553c 81c7 8abd fe3f 1abb
00000220: 8788 983d f841 8f3d 1d52 96bd 4fd2 6a3c
00000230: d5fb 9e3d 3801 4cbd fd6b 343d 9072 3dbd
00000240: 3a4e 9f3d ab6b d5bc 4a52 3e3d 82c0 86bd
00000250: 5d76 82bd 0ebd 213c a17b 34bd fcc7 33bd
00000260: 79cb a1bc bbb3 03bc 05ff 97bc ccbe 92bd
00000270: 1eda c63b efab 193d 1277 72bb f0f6 783d
00000280: 1879 c83c 3ef3 79bd e30a b7bd 5cfb 3bbd
00000290: ba71 383d c463 d43c 659d 803d 7fad 75bd
000002a0: 5853 8c3d ca88 cabc 0b53 60bd 0fb8 dbbc
000002b0: cdf5 1e3d a90f 91bd c7de e0bb efb2 763d
000002c0: 80cc bdbd 5d4b b5bc c93c a63d c074 9fbd
000002d0: fa9d 453d 9d08 4bbd 790b 5abc 6525 813d
000002e0: 4eae 133d 5977 16bd 1ca8 27bc a8e0 883d
000002f0: 6696 123c 7398 34bd ae8e 383c eb82 e6bb
00000300: b100 843d c270 99bd fad9 b83c 1c81 803d
00000310: 57a8 a8bd 97d4 8b3c 6ee2 34bc 6fb9 dc3c
00000320: 5296 31bd be80 333d 108e 4bbd 50a7 2fbd
00000330: 1f26 52bc 9dfd b1bd 3753 44bc 6b66 7a3d
00000340: b4d3 55bb 6f6f d83c f3cd bdbd 5f82 aebd
00000350: 1c26 a1bd 7048 5f3d 905e 8bbd 37f6 b0bd
00000360: 90d5 ef3c 5c04 a9bd 79ae 5cbc c067 e2bc
00000370: 0aa1 3f3d 6002 9fbd d698 1c3d 85dd 493d
00000380: b49b a6bd cb0b 8f3c 19d2 43bb 0d5a dcbc
00000390: 6d60 693d c4d6 85bd 2b6a c0bc 8b2c 2fbc
000003a0: f2ef e33c 018d 70bc af28 55bd 524e 1a3d
000003b0: 088b 9f3d 957f db3c cf50 0e3d 9b9d 56bc
000003c0: b037 a03d fee0 f93c 5b2c 803d d35f 5dbd
000003d0: 1b16 dabc d63b 5fbd 2a92 87bc 8902 1b3b
000003e0: ec7d 973d 7cd4 9f3d 2a1d 9ebc fbe5 653d
000003f0: 7c69 17bd 1521 433d 3f42 1a3d f7ca 1cbd
0.063210934 0.075891376 -0.07486444 0.04738627 -0.026445443 0.057941254 0.030358199 0.07536318
0.02975812 0.034850508 -0.06780564 -0.029800346 0.042730078 -0.021976748 -0.032692604 -0.06066136
0.050617315 -0.044701923 -0.067817 -0.024523143 0.037664402 0.054147415 0.033753667 -0.03310936
-0.0017404623 0.05643311 0.04737425 0.048903067 -0.07076128 0.030791394 0.06066666 -0.027680747
-0.031819183 0.037533674 -0.030081358 0.05150437 0.040122487 0.075591676 -0.013310129 0.007856751
0.03199242 -0.013703325 0.021936841 0.060236327 -0.079524264 -0.054054752 0.050587434 -0.025359055
0.038805358 0.0036922423 -0.079288185 0.074958116 -0.018161198 -0.02205068 -0.033740167 -0.04995053
0.021519013 -0.04488007 0.026056284 0.029276539 -0.02919669 0.023804583 0.06725699 -0.046056338
0.0691774 0.06385566 0.04712521 0.02723114 0.014307844 0.0826909 0.002695067 0.05795126
-0.0813891 0.05857371 0.036685422 -0.06922723 -0.00055483787 -0.03371334 0.0030882931 0.05977598
-0.058724653 0.0030084336 -0.03593685 0.011351746 -0.056239333 0.08093882 0.06521006 -0.017213289
-0.07404955 0.053377032 -0.012916916 -0.026098158 -0.06956837 -0.052588247 0.06741164 0.06853255
-0.023241566 0.034408465 -0.020513901 -0.0033893622 -0.017996296 -0.024094598 -0.015521786 -0.02742152
0.026473386 -0.034215674 -0.048418514 0.0025198392 -0.051261585 -0.05918397 0.029493961 0.015197434
-0.04105509 -0.04230426 -0.022871671 0.024485126 0.010077252 -0.02570544 -0.03438007 -0.0031544361
0.04600551 0.033293456 0.029862609 0.062692426 0.06916889 -0.019113498 -0.022411399 0.05699818
0.010965878 -0.06656197 0.07006378 -0.027137138 -0.03827939 0.013022894 -0.067763336 -0.0023536677
0.074479155 0.069950044 -0.073398806 0.014332368 0.07762877 -0.04980585 0.0440483 -0.046251833
0.077785924 -0.026052317 0.046465196 -0.06579687 -0.06370232 0.009871734 -0.044063214 -0.04389189
-0.019750344 -0.008038457 -0.01855422 -0.07165298 0.006068482 0.037517484 -0.003699724 0.060782373
0.024471804 -0.06102299 -0.08937623 -0.04589401 0.045030333 0.025926478 0.062800206 -0.059979912
0.06851834 -0.02472343 -0.054766696 -0.026821164 0.038808633 -0.07083065 -0.0068624946 0.060229238
-0.09267521 -0.022130663 0.081170626 -0.0778594 0.04824636 -0.04956876 -0.013308399 0.063059606
0.0360549 -0.036734913 -0.0102329515 0.06683475 0.008946991 -0.0440907 0.011264486 -0.0070346496
0.064454444 -0.0749221 0.022564877 0.06274626 -0.08235233 0.017069144 -0.011040313 0.02694389
-0.043356247 0.04382395 -0.04969603 -0.04288417 -0.012826472 -0.08690951 -0.011982731 0.06113283
-0.0032627406 0.026420323 -0.09267797 -0.0852096 -0.07868597 0.05451244 -0.06805146 -0.08640712
0.02927664 -0.082527846 -0.013469332 -0.027637362 0.04678444 -0.07764125 0.038231693 0.049283523
-0.08135167 0.017461678 -0.0029879867 -0.026898408 0.056976724 -0.06535104 -0.023488125 -0.010691772
0.027824376 -0.014682055 -0.052040752 0.03767235 0.0779019 0.026794234 0.034745034 -0.0130990995
0.078231215 0.030502792 0.0625846 -0.054046463 -0.026621869 -0.054500423 -0.016549189 0.0023652634
0.073970646 0.078042 -0.019301016 0.05612753 -0.036965832 0.04763897 0.037660833 -0.0382795

net.12.bias f4 [3]
00000000: ac72 223d 060e 55bd 8b97 933c
0.03966014 -0.052015327 0.018016597
